models/conv_autoencoder_trained_on_sentinel.pth (torch_old, 846066 bytes, 12 tensors)

encoder.0.weight f4 [16, 3, 3, 3]
00000000: 619a 4e3e a12a 2e3e 1499 ec38 1051 3a3e
00000010: 0d25 55bc 4309 173d 7754 fdbc f62c da3d
00000020: 192e 013e b9ab 21bd 02a8 433e 3a05 a43d
00000030: 5cf8 263e 96d7 773d dd8a c53d 6134 ab3c
00000040: 2597 0d3e a64a 993a 7176 44bd c526 c53c
00000050: 411e ccbd 26db debc 1c56 a2bd aefa 8d3d
00000060: b443 03be d1c9 f9bd faac 06be 556e 16bd
00000070: 87dc 4cbd ad7c 77bd 2da0 e73d a6b2 f0bd
00000080: 068c 393e 20db cd3d 3c65 1ebc bf1b 153e
00000090: 8941 973d 4061 263d 23b0 a43d 887d a7bd
000000a0: 394e 683d 93d9 87bc f9c3 253e 5ede 493e
000000b0: 908e 0c3e b2d3 79bd fb9b 35bd 6938 8f3d
000000c0: 0c09 703c 749c f6bd 6dc2 27be ec8b 7dbc
000000d0: eed8 fcbd 9fd4 143e aabf ec3d 385c aa3d
000000e0: e24d 173e d240 293d 50d5 393d 517f fa3b
000000f0: cba3 353e 0bba efbc 928b 453e 2968 fa3d
00000100: 79df 163e 74d8 203e 77b6 463e 5b99 12bd
00000110: 31a0 6c3d bc86 0e3e a621 3e3e fd84 5b3e
00000120: 908e 583e 6b56 d43a b2dc 8e3d d942 1dbd
00000130: 288c adbd a559 d13d 51e8 353e 3215 e63d
00000140: 6cde 923d 1534 b6bd 0656 603d 5891 bebd
00000150: 0b3d 483d 9c33 8abc 9edd 723d cec1 e7bd
00000160: 3218 65bd 551e de3c dc4f ba3d e7ab e0bb
00000170: cd2d 0a3e e2b1 c53d af86 ffbc 273d 49bd
00000180: 8574 4d3e d8c5 383d 599c 46bb 132a 1ebe
00000190: f79d f5bd 9f9f ea3c eeff c8bd 7f4c babd
000001a0: ec7a 30bc 04ab edbd 1ae9 cdbd 359b b9bd
000001b0: 4616 47be eece 5dbd a543 2a3e 0455 1ebe
000001c0: b9cc 8abd 17b1 313d 6675 18be e769 09bc
000001d0: e4d2 243e f354 03be 6ba0 5c3d 5cdb 223e
000001e0: dfdb b4bd 5c54 123c 6e6f 1e3e fa82 d2bd
000001f0: 8dc5 053d 769a 473e 1617 10be 639a 8fbd
00000200: cea0 133e 1bdd 21be 3820 13bd b970 b43d
00000210: 45cd 3bbe d854 ef3a d0a4 1e3e a7e4 94bd
00000220: 19f2 ccbd 606b 43be b3e7 223d 96ec e5bb
00000230: aa97 9a3d 025a 0ebe e565 1d3e c4e0 31be
00000240: 7ff1 09bc 21ab b73d 53f3 bd3d 63e8 333e
00000250: a558 6a3e c4f5 abbd 0352 be3d bd98 38bc
00000260: 20f1 b6bb c12c edbd 5115 493e 167f 1bbe
00000270: 5aa9 e83d ba49 da3d a7e5 9e3d 78e5 77bd
00000280: e4b7 483e 4866 b03b 8b30 9b3d b6fd 01be
00000290: 4350 b53d 43fd 893d 9a82 3abd cddf 083e
000002a0: 26ca 573d 479c a6bd e1d0 b1bd fd70 643d
000002b0: 7119 ed3d 577c 82bc 5207 cfbb 3517 edbc
000002c0: 6442 f5bd eee5 913d addf 043e 1805 1cbe
000002d0: 363b 343e 0b9d 263e 351f db3d 52fa d93d
000002e0: c040 283e d666 043e 1479 103e 90a0 a53c
000002f0: 70c4 86b9 d2cf fabc ecc0 3bbd 3458 03be
00000300: ef2f 383e 89c0 133e a9c9 d43d b8eb d23d
00000310: 1995 e93d bf85 5e3d 574e e6bd 3e25 a7bd
00000320: cfa9 a2be 2986 a6bc ffa1 e93d 7ace 083e
00000330: 85a9 953d d18b ddbc e8bc 95bd 4e80 74be
00000340: 5a35 11be c224 02be 6bf6 2e3e ad1d 963d
00000350: 340c 00bd 6379 0a3d ce44 963d 63ff 3a3e
00000360: a0d9 ed3d 74da 6cbc 69fa f93d 7843 91bc
00000370: 9237 83bd cb16 b53d e4e7 4fbe e3dd 23be
00000380: 340f a1be 9974 913e 463a 7c3e 62cb 683e
00000390: 79c6 c8bc 9634 64bd 87d7 7ebd 0253 5dbb
000003a0: be6a cdbc ab56 853c c260 523e 3d5e de3d
000003b0: 654d 003e 979a a4bd 702c 94bd 17b5 eebd
000003c0: c29b e7bd a87b 50be 946f 33be 914d 01be
000003d0: bc06 e9bd 8160 26be 805e f0bd d22a cbbd
000003e0: 56f1 a3bd 433f 3d3e bc95 253d 8875 a33c
000003f0: b9db 31bd 3492 0abe 2204 8cbd dcd6 17be
0.20176078 0.17008449 0.0001128187 0.18194985 -0.013009322 0.036874067 -0.030924065 0.10653107
0.12615241 -0.039470408 0.19107059 0.080088094 0.16305679 0.060508333 0.09645627 0.020899
0.13827188 0.0011695221 -0.047964517 0.024066338 -0.09966708 -0.027204107 -0.0792658 0.06932579
-0.12818795 -0.121966965 -0.13151923 -0.036726315 -0.050015 -0.060421634 0.11309848 -0.117528245
0.18119821 0.100515604 -0.009667691 0.14561366 0.07385547 0.04062009 0.08041408 -0.0817824
0.056715224 -0.01658324 0.16188039 0.19713733 0.13726258 -0.060992904 -0.044338208 0.06993181
0.014650594 -0.1204156 -0.16382761 -0.0154752545 -0.123460636 0.14534234 0.115599945 0.083183706
0.14775804 0.041321583 0.045369446 0.007644572 0.17738263 -0.029263517 0.19291523 0.12226898
0.14733686 0.1570757 0.19405542 -0.035790782 0.057769958 0.13918585 0.18567523 0.2143745
0.21148133 0.0016200071 0.06975688 -0.03839383 -0.08473998 0.102221765 0.17764403 0.112345114
0.0717133 -0.088966526 0.05476954 -0.09305066 0.04888634 -0.016870312 0.059293382 -0.11316262
-0.055931278 0.027114073 0.09097263 -0.00685643 0.13494034 0.09653069 -0.031192152 -0.049130585
0.2006398 0.045110554 -0.0030305593 -0.15445738 -0.1199302 0.028640566 -0.0981444 -0.09096622
-0.010771494 -0.11604884 -0.10054226 -0.090628065 -0.1944209 -0.05415242 0.16627367 -0.15462118
-0.06777329 0.043381777 -0.14888534 -0.0083870655 0.16096073 -0.12825374 0.053863924 0.15903991
-0.088309996 0.008931246 0.15472195 -0.10278888 0.032659102 0.19492516 -0.14071307 -0.07011869
0.14416811 -0.15807001 -0.035919398 0.08810563 -0.18340023 0.0018259538 0.15492558 -0.072701745
-0.10007114 -0.19083929 0.039771747 -0.0070167286 0.07548459 -0.13901523 0.15370901 -0.17370898
-0.008419394 0.08968187 0.09274926 0.17569117 0.22885378 -0.083964854 0.09292986 -0.011266884
-0.0055829436 -0.11580802 0.19637038 -0.15185198 0.11360426 0.106585935 0.077586465 -0.060521573
0.19601399 0.0053832866 0.07577618 -0.1269444 0.08853199 0.06737759 -0.045534708 0.13366623
0.05268302 -0.08135276 -0.086824186 0.055771817 0.11577118 -0.01592843 -0.0063180113 -0.02894173
-0.11975554 0.07123934 0.1297595 -0.15236318 0.17600712 0.16270845 0.10699312 0.10643448
0.1643095 0.12929854 0.14108688 0.020218164 -0.0002570483 -0.030616675 -0.04583828 -0.12826616
0.17987035 0.14428915 0.10390026 0.10298866 0.11405391 0.05432677 -0.11245411 -0.081614
-0.3177018 -0.020327644 0.114078514 0.13360015 0.07307724 -0.027044209 -0.07311422 -0.2387707
-0.14180508 -0.12709334 0.17086188 0.07329879 -0.031261638 0.03380717 0.07337342 0.18261485
0.11613774 -0.01445638 0.12205965 -0.017732367 -0.064070836 0.08842238 -0.20303303 -0.16002612
-0.31456912 0.2840927 0.24631605 0.22733834 -0.024508702 -0.055714212 -0.06221726 -0.00337714
-0.025075313 0.016276678 0.20544723 0.10857818 0.12529524 -0.08037298 -0.07235038 -0.11655634
-0.11309005 -0.20359671 -0.17523032 -0.12627245 -0.113782376 -0.16247751 -0.117367744 -0.09920277
-0.080050156 0.18481164 0.040426 0.019953504 -0.043422434 -0.13532335 -0.06836726 -0.14828056

encoder.0.bias f4 [16]
00000000: 4fa5 a83d fb98 df3e d0a9 c6be a2eb d83e
00000010: 16cb 4c3e adb2 f33d 03ce e5ba c367 d53d
00000020: aecd 2e3e 478a 8a3e 66e2 ec3e 3562 b83e
00000030: ff38 fa3e be31 e53c ceda 783c 5805 a73e
0.08234655 0.43671402 -0.38801432 0.42367274 0.19999346 0.11899314 -0.001753271 0.104201816
0.17070648 0.27058622 0.46266478 0.36012426 0.4887161 0.02797782 0.015188886 0.32621264

encoder.3.weight f4 [32, 16, 3, 3]
00000000: 52d1 8d3d bd89 783c 4e7c 5ebd 73f6 fe3c
00000010: 4b73 fb3d dfaf c5bd 54e4 4d3c ccf8 f1ba
00000020: a272 93bd 0e78 253c 9a94 64bd 94f1 26bd
00000030: 17d1 c43d f39b 84bc fa65 a8bc 3b4e e3bb
00000040: 140d 15bd fbec 65bd 74ea 34bd a278 12bb
00000050: 5b4a 55bd 6321 f9bc bcec 9b3d d191 f0bd
00000060: f34c 89bc 53c8 98bd a968 0b3d 8e44 99bd
00000070: 96db 0c3c 2b36 923d e2ff b1bd 6913 d93d
00000080: ab47 e53d 8589 55bd ec1b 82bd 3403 6abd
00000090: ebf8 bc3d 6d83 2cbe f0fd 293d fd83 273e
000000a0: c887 a2be 6ff2 003e d444 003e 834f bbbd
000000b0: c27d 3c3d 3c17 423d e5dd cb3d e091 03be
000000c0: 5dbc 9c3d a6b7 193e b4db 39be d12c 843c
000000d0: e3ff 153d e6a2 97bd 2ba4 1e3d 5568 eabb
000000e0: 4955 37bd 7395 033d 2519 143e 8747 59bd
000000f0: 6306 63bd a7a8 bb3c a2b4 5e3c 0ebf c8ba
00000100: 7b92 773d a5de 5abc f3e2 263d edbf 84bd
00000110: 5329 88bc 5840 623d 506f 3dbb e8d0 59bd
00000120: aa06 60bd 081c 8f3c cec8 0abd 93fd c4bc
00000130: e37f c4bc fe2c f13d 7b89 a9bd a5f8 b7bd
00000140: 4f1f a03d ed6e 253b 2232 79bd 9b24 753d
00000150: 98ec e1bb cd76 74bc 40cc 0e3d 8f6e cf3c
00000160: 66e2 8c3d c909 a3bd dff0 b0bd 4d41 ec3b
00000170: 01a9 a63d 9c6d febd 1631 553e abc6 013e
00000180: 8bf6 5fbd f671 f93b c4a3 283d 13ea a23d
00000190: d02a 833d bfed 18bd d8e2 9e3d 0639 b23d
000001a0: 0d5c 76bd 278e 423d a3ad 90bc 4150 28bd
000001b0: 5ed3 a5bc 5d9a b03c 3be5 313a e6e0 77bd
000001c0: 4420 033e a2d7 c33c ca75 85bc 04f7 afbd
000001d0: 3f75 d2bd c63a 963d 4f01 cebd 0319 2a3d
000001e0: 7ad3 d93c 3194 2ebd 3148 2ebb d990 9e3c
000001f0: 34c5 46bb 1c06 5c3d 88d5 893d 6061 f43c
00000200: 12b2 70bd 9b5e 9f3c 2e0b 113d 0839 aebd
00000210: 846a 8d3c 548c 813c 5ffc 343c ea7d 15be
00000220: 6fe7 363e f451 a4bd 713a e9bd 82ee 2a3e
00000230: 32e9 91bc 1772 1bbe ead2 053e bdb6 24be
00000240: eec4 8ebd c030 d0b9 9c9a 03bd 511a abbd
00000250: 2c0a 82bc 99d8 78bd de2f ce3c 0c46 36bc
00000260: b159 69bd 2c89 7a3d 932e 3ebd f15e 7f3b
00000270: ba2f 65bc 91e6 7bbd dacd 29bd 94e3 9eba
00000280: f879 563d bcee a83d fd0b 93bc 6ba7 acbc
00000290: a988 93bc e62a 12bc 3fd0 85bc e70a a4bc
000002a0: 663e 88bb 6fe2 b7bc 4c1f f6bc dadc 093d
000002b0: 8205 7ebd e647 9bbd 9956 f5bd 623f 92bd
000002c0: 9e1b 5ebc db44 f7bd 87c2 acbc 110d 4d3d
000002d0: 699b 213d 83b6 d23b 2580 cabb 0298 e93a
000002e0: f9f6 56bd ba02 67bd bbef 8dbd dba1 c5bd
000002f0: ca85 a3bc 9fe8 9bbc 9181 06bd e88e 983c
00000300: 5c4c 863c 21ef 6fbd 4b46 aa3d 4a1d 713d
00000310: 2c09 72bd 2e65 02bd 7ef8 403d 99d8 b53c
00000320: e681 1c3d 6668 9bbb fff0 983d 96e5 89ba
00000330: 1043 a13d f106 2b3d decd 0e3d c514 d33c
00000340: 9146 993b e732 0f3c 43df 25bd b832 72bb
00000350: 522a febd 205a df3b 3852 c1bd d71c ccbc
00000360: cea5 8dbc 8dc1 e5bc 031f 9d3b 87f0 f1bc
00000370: d735 8e3d f8c2 0a3d cc1e b539 35b9 1c3d
00000380: 246d a13d b6a5 e83c d462 7ebc c230 8b3d
00000390: 46ec 4bbc 9fa8 8dbd fbbf 0ebe f17f fdbb
000003a0: 33c3 353d f69d 953c c550 9f3c e301 d6bc
000003b0: 3fb6 77bd fafc f2bc e72e c7bb 22c6 973c
000003c0: d07c 15bd 3d96 803d 38f7 a63d 497b e83d
000003d0: 04de 463d 2681 e53d ad4f 163d 40c9 7f3d
000003e0: 844d a23d 1672 b13d c91e dbbc 1fc0 be3d
000003f0: a6c3 9d3d 7a66 7cbd 1080 b5bd 1819 06bd
0.0692469 0.015169558 -0.054317765 0.031123376 0.1227785 -0.096526854 0.012566645 -0.0018460988
-0.07199599 0.010099424 -0.05580578 -0.04075773 0.09610193 -0.016187644 -0.020556439 -0.006936816
-0.036389425 -0.056134205 -0.044168904 -0.0022349735 -0.052072864 -0.030411428 0.07613513 -0.11746562
-0.016760325 -0.07460084 0.03403536 -0.07483779 0.008597275 0.07139238 -0.08691384 0.10599405
0.1119531 -0.052133102 -0.06352982 -0.05713196 0.09227165 -0.1684701 0.04150194 0.16358943
-0.31744218 0.12592481 0.12526256 -0.09146025 0.04601837 0.04738544 0.099544324 -0.12848616
0.07653115 0.15011463 -0.18150216 0.016134651 0.036620986 -0.07404117 0.03873078 -0.0071535506
-0.04475907 0.032124948 0.14462717 -0.05304673 -0.055426013 0.022907568 0.013592871 -0.0015315728
0.06044243 -0.013358747 0.04074378 -0.064819194 -0.016621267 0.055237144 -0.0028905459 -0.053177744
-0.054693855 0.017469421 -0.03388291 -0.024046695 -0.023986762 0.1177616 -0.082781754 -0.08982972
0.07818472 0.002524312 -0.060838826 0.059849363 -0.0068946593 -0.014920902 0.034862757 0.025321273
0.068791196 -0.07960851 -0.086396925 0.007209933 0.08137704 -0.1242325 0.20819506 0.12673442
-0.05467848 0.007612462 0.041171804 0.07954802 0.0640465 -0.037336107 0.07758111 0.087022826
-0.06014638 0.04749885 -0.017660921 -0.04109216 -0.02024239 0.021557981 0.0006786172 -0.060517214
0.12805277 0.023906533 -0.016291518 -0.08592036 -0.10276269 0.07335429 -0.10058843 0.04152776
0.026590098 -0.042621795 -0.0026593322 0.019356178 -0.0030329945 0.053716764 0.06730181 0.029831588
-0.05876357 0.019454291 0.035411052 -0.085069716 0.017262705 0.015813984 0.011046498 -0.14598814
0.17861722 -0.08023444 -0.113881 0.16692546 -0.017811392 -0.1518024 0.13068739 -0.16085334
-0.06971155 -0.00039709173 -0.03212987 -0.08354629 -0.015873991 -0.06075344 0.02516931 -0.011125099
-0.056970302 0.061165974 -0.046431135 0.0038966502 -0.01398843 -0.061499182 -0.04145608 -0.0012122267
0.052362412 0.0824866 -0.017950052 -0.021075925 -0.0180095 -0.008921361 -0.016334651 -0.02002473
-0.004157829 -0.02244684 -0.03004422 0.033657886 -0.06201697 -0.07582073 -0.11979408 -0.071409956
-0.013556389 -0.1207368 -0.021088852 0.05006129 0.03945485 0.0064304485 -0.006179827 0.0017821791
-0.052481625 -0.056399085 -0.069304906 -0.09650012 -0.019961257 -0.01903182 -0.032838408 0.01862283
0.016393833 -0.05857766 0.083141886 0.058865823 -0.05909078 -0.031834774 0.04711198 0.022198008
0.03820982 -0.00474267 0.07467841 -0.0010520692 0.07874119 0.041754667 0.0348643 0.02576674
0.0046776016 0.008740163 -0.040496122 -0.00369565 -0.12410416 0.0068161637 -0.0943951 -0.024916096
-0.017290976 -0.028046394 0.0047949567 -0.029533638 0.06943863 0.033877343 0.00034545956 0.038262565
0.07882145 0.02839933 -0.015526492 0.06796409 -0.012446469 -0.069169275 -0.13940422 -0.007736199
0.04437561 0.018263798 0.019447694 -0.026123947 -0.060476538 -0.029661644 -0.0060785892 0.018527094
-0.036495984 0.06278656 0.08152622 0.1135164 0.048551574 0.11206274 0.03669708 0.062447786
0.07924941 0.08664338 -0.026748078 0.09313988 0.077033326 -0.061621167 -0.088623166 -0.032738775

encoder.3.bias f4 [32]
00000000: e259 ed3d 94ed 5e3d 7643 463e 875b c23b
00000010: a218 45bd 8b28 373d 4020 c7bc 3ab0 b73d
00000020: d5e7 8e3e a4e5 1e3e e126 4d3e 3086 c43d
00000030: 80be 70a2 c044 4f3e 476b 6d3e b487 da3d
00000040: 1968 1dbd d982 983d d2bd 113e 4a37 15bd
00000050: 3033 e93d 2863 5d3e d557 733e ed9c 993e
00000060: b102 123e fe85 813e 8dcd 843c 4057 11bd
00000070: ea53 293e eb57 56bd a887 83bd e73a 1d3e
0.115894094 0.05442579 0.19361672 0.005931321 -0.048119195 0.0447164 -0.02430737 0.089691594
0.2791125 0.15517288 0.20034362 0.09595907 -3.2626915e-18 0.2024107 0.23185454 0.106704146
-0.038429353 0.07446832 0.14232567 -0.03642968 0.11386716 0.21619856 0.23763974 0.30002537
0.14258839 0.2529754 0.016211296 -0.0354836 0.16535917 -0.05232994 -0.06422359 0.153545

encoder.6.weight f4 [64, 32, 7, 7]
00000000: 8f01 f0bc 3bd3 a13c e3ab 623d 99b1 513d
00000010: 6c47 08bc 627f 47bd 1067 fb3b dadb 9b3c
00000020: e1f9 893d 22ac 22bd 9b0a 15bc b6ea 21bc
00000030: 9af9 e03c c519 f1bc 014d 2bbb bd00 793d
00000040: 9cf6 49bd dc27 23bb 7ec7 5abc 10d4 d73c
00000050: 57da 35bc 3361 70bd eec5 9f3d 3e8f 7a3c
00000060: 944b d93c f64d b23b 4f3d 2bbc 6b3d 87bb
00000070: e803 bfbc 30ac f43b 1237 ef3c e8d7 543a
00000080: ccdc 283d 4b47 1ebd 24a1 4dbc 5a9a 323c
00000090: c8a3 76bc a284 54bc e0b6 4ebb d671 91bc
000000a0: 2b23 863c 5be4 aeba 146c 92bc 53e0 fc3a
000000b0: 2b1a 2d3b 8afd 30bc a98f 133c 3e15 16bc
000000c0: a809 ce3b 5362 36bd 6140 4b3d 57e9 a1bb
000000d0: f77e b0bc 10a7 e6bc 09c5 fdbc fb56 dcba
000000e0: c8fd bcbc 024e 993c f24f 103d b28d a53d
000000f0: 3564 2b3d cd70 b7bb 9ff8 563c f0d4 71bc
00000100: 3582 9d3d 1846 333d dc59 ef3c ff94 ee3c
00000110: de42 853c 334f 973c 7640 79bd 182c 283d
00000120: 1c67 a93c be63 f1ba 4ef4 1d3a 99da f33b
00000130: ed0a 86bb a453 31bd 45d6 143d e31c 25bc
00000140: 500f 463c 61a5 b13c d0ed 02bd a7c3 2dbb
00000150: c5f7 18bd d22b a63d bc6e 3a3d bb14 d3bc
00000160: 9405 6d3b 4cf6 6f3c 131e 01bb 2cdb 27bc
00000170: 5c78 d6bb cab2 95bc edc5 3f3c ed1a e13b
00000180: 949c 823b 2b6e 213a 37c7 933c 63da 303d
00000190: 4cab 473d 5d63 513d 80a3 3b3d b74b ee3c
000001a0: 0119 463b d973 243d 8613 c3bd 1040 02bd
000001b0: 629b ac3c 358e c6bd 726c 01bc 0db7 cfbc
000001c0: 9864 09bc 37df 023b 05f2 9ebd 9a72 cdbc
000001d0: d5c4 f4bc f168 08bd c85e e7ba c0ec 1c3d
000001e0: f42d b7bc fe56 38bd 0964 a33b bf9b 7d3c
000001f0: 369a 11bd 0b60 a1bb 4d6d 813b 3a66 f5bb
00000200: 5a7c b23c 9700 dc3c 446c 0e3c 61a0 8bbc
00000210: 4c9c e53b 7bed 273c ad92 abba 2c32 b43b
00000220: 08e0 e83a 7bf3 8aba ed31 293d 256e 8b3c
00000230: 32ba c4bb c714 dcbb f46b 883a 3f7d 29bc
00000240: 77fe 913b 96de 65bb 60d1 2b3b 12d6 ce3c
00000250: c4b8 73bd 400f 6fbd 4f20 773b 8336 5ebd
00000260: bdcf 0c3c bc13 383c 2905 6fbc 1ec7 743d
00000270: adf8 413e c984 afbc 9206 a4bd f7f0 1b3d
00000280: 9509 393b 6af8 18bc c2f1 763c cd4b ae3c
00000290: a7da 81bd 787c cdbc 90cd 63bd f93a 923b
000002a0: 0ad8 243b 320c 7e3c 0fc6 51bd d85d 5cbc
000002b0: cb72 87bc b1ff 9339 22ea 213b 4335 f63a
000002c0: 905c 233c a111 00bd 3da2 de3c d3b6 613c
000002d0: fad0 a7bc 7b9d c6bb bf2a 653c b23c 0b3d
000002e0: 1764 3d3d a6d2 a6bc 5e2c a1bc aeda a1bc
000002f0: a017 4fbc 338c a53c b390 2fb6 e5db b73b
00000300: 1694 acba a3fa 69bc f90a 7d3c 73de d3bb
00000310: 8c7f 7abb e707 89bc 1d72 98bc 35b1 a2bb
00000320: 9835 4cbc e0c1 73bc 62ef 38ba f87b c3bb
00000330: 120a 283d 1236 283d 2ac6 6bbb 6b16 b1b9
00000340: 6cff a23c c064 89bb a10f fabb d1be ba3c
00000350: e347 623b e32e 56bb 8a98 f23b 0df1 04bb
00000360: 04f6 863a 6f4f 02bc ad14 5e3c 308a 9a3a
00000370: d69c 9f3b 6434 92b9 b3b9 0dbc 7dcc 65ba
00000380: d42d 08bc c6f7 7b3c 6619 133c 995c 9b3b
00000390: b169 ecba 5ecb e13a 4308 70ba bdb2 bbbb
000003a0: 47e6 1abc 750d 08bc 06e3 053c 45b2 203c
000003b0: 49d6 e936 3e91 173b 23b3 aabb 83ba 193c
000003c0: 5458 983a 1dc6 e0bb d4df 48bb d29f ac3a
000003d0: b147 2ebb 2041 89bb 72d1 ea3c ab32 993c
000003e0: 92f2 35bc 7ffd 28b9 2985 1d3c 9c84 023b
000003f0: d732 573b efa0 a2bb 8275 8cbc 61b2 c23b
-0.029297618 0.019754043 0.055339705 0.05119476 -0.00831781 -0.048705466 0.007672198 0.019025732
0.06737114 -0.03971494 -0.009096767 -0.00988262 0.02746277 -0.029431233 -0.0026138427 0.06079172
-0.04930745 -0.0024895584 -0.013353227 0.026346236 -0.01109942 -0.058686446 0.07801424 0.015292941
0.026525296 0.0054414226 -0.010451629 -0.0041271946 -0.023317292 0.0074668154 0.029201064 0.0008119331
0.041226193 -0.03864221 -0.012550626 0.010901058 -0.015053697 -0.012971075 -0.0031542107 -0.017754477
0.016374191 -0.0013343202 -0.017873801 0.0019292928 0.0026413302 -0.010802636 0.009006419 -0.009160338
0.006287772 -0.044527363 0.049621943 -0.0049411464 -0.021544917 -0.028155833 -0.030977743 -0.001681059
-0.023070231 0.018713955 0.03523249 0.08083667 0.04184361 -0.0055981637 0.013120799 -0.014760241
0.07690851 0.04376802 0.029217653 0.029123781 0.016267236 0.018470382 -0.06085249 0.041057676
0.02067905 -0.0018416566 0.0006025479 0.0074418304 -0.004090658 -0.043292657 0.036337156 -0.010077688
0.012088612 0.021685304 -0.031965077 -0.0026514323 -0.037345666 0.08113827 0.04551576 -0.025766721
0.0036166655 0.014646124 -0.0019701764 -0.010245126 -0.0065451097 -0.01827373 0.011704904 0.006869665
0.0039859507 0.0006158079 0.018039329 0.04317702 0.048747346 0.05112015 0.045810223 0.029088838
0.0030227306 0.040149543 -0.09525208 -0.031799376 0.021070186 -0.096950926 -0.0078993905 -0.02535584
-0.0083858 0.0019969472 -0.07761005 -0.02507906 -0.029879013 -0.033303205 -0.0017652148 0.03831172
-0.02236078 -0.045004837 0.0049862904 0.015479027 -0.035547458 -0.0049247793 0.0039497972 -0.007488993
0.021787811 0.02685575 0.008692805 -0.017044248 0.0070071574 0.010249491 -0.0013089977 0.005499145
0.0017766962 -0.0010601127 0.04130738 0.017020294 -0.0060036415 -0.006716344 0.0010408149 -0.010344802
0.0044553834 -0.0035075299 0.0026217327 0.025248561 -0.059502378 -0.058364153 0.0037708466 -0.054251205
0.008594451 0.011235174 -0.014588633 0.059760205 0.18942519 -0.021425622 -0.08009066 0.0380716
0.002823447 -0.00933657 0.015072288 0.021276379 -0.06340533 -0.025083765 -0.05561596 0.0044625965
0.0025153183 0.015505837 -0.051214274 -0.0134501085 -0.01653423 0.0002822853 0.0024706204 0.0018784184
0.009970799 -0.031266812 0.02717697 0.013776499 -0.02048539 -0.0060612536 0.013987242 0.03399343
0.04623803 -0.020364117 -0.019674476 -0.019757595 -0.01263991 0.020208454 -2.6161258e-06 0.0056109303
-0.0013166692 -0.014280948 0.015444511 -0.006465727 -0.0038222997 -0.016727401 -0.018609101 -0.0049649724
-0.01246395 -0.014877766 -0.0007054714 -0.005965706 0.04102523 0.04106719 -0.003597627 -0.00033776773
0.019897185 -0.0041929185 -0.0076312576 0.022796066 0.003452771 -0.0032681755 0.007403438 -0.002028528
0.0010296707 -0.007953509 0.013554734 0.0011790451 0.004870991 -0.00027886324 -0.008650231 -0.0008766128
-0.0083117075 0.015378898 0.008978223 0.004741263 -0.001803687 0.0017226746 -0.00091565045 -0.0057280944
-0.009454316 -0.00830399 0.008171802 0.009808128 6.968887e-06 0.0023127343 -0.005209343 0.009382847
0.0011623004 -0.0068595544 -0.003065099 0.0013170189 -0.0026593024 -0.0041886717 0.028664324 0.018700918
-0.011105197 -0.00016116163 0.009614267 0.0019915467 0.00328367 -0.0049630324 -0.017145876 0.0059416746

encoder.6.bias f4 [64]
00000000: 421a 0e3d a80a 883c a569 4d3d 64bf e93c
00000010: 1d5d 083d 1756 753c d7dc 22ae d212 d03c
00000020: 138a 1eb9 3e5a 8bbb b7f5 dca2 28fe eebc
00000030: 85e0 1f3c 44c6 f5bc 4441 47bc ac7f ce94
00000040: 99e4 8eba 76c4 91b5 937a 253d e376 123e
00000050: 5c40 82b2 da7a 573d 8d13 baab 24fa 133e
00000060: b06c b63c 7012 c23d 2b0b a3bb 5509 48aa
00000070: e6af 3e3c aed7 c8bc 3d24 853c 8942 94b2
00000080: a480 0fbc 14b8 46bd 8f0b cbb4 1048 e2b4
00000090: eaba 53b1 c446 993b eef1 983d ddce c0bc
000000a0: a99d 4dbc b3c6 053d 5d45 723d 6d13 4fbd
000000b0: 0ae5 a0bb 8703 333d 4c1d 913c af55 773d
000000c0: 8d4a e3ba f034 003d 7024 ac3c da6c 1d3d
000000d0: eac6 533c 41b8 e63b b467 593d 4051 ab9c
000000e0: db62 453c 14d3 413d 5e6e f2bc b9fd 793d
000000f0: dcca 9cbc 6a4a 073d deb9 d6b9 697b 423d
0.03469301 0.016606644 0.05014958 0.028533645 0.033291925 0.014974139 -3.703068e-11 0.0253996
-0.00015119491 -0.004252701 -5.989128e-18 -0.029173926 0.0097581195 -0.030001767 -0.012161557 -2.0851042e-26
-0.0010901868 -1.086052e-06 0.0404001 0.14303164 -1.5163259e-08 0.052607395 -1.3221521e-12 0.1445089
0.022268623 0.09476173 -0.0049756966 -1.7766806e-13 0.011638617 -0.024516907 0.016252631 -1.7259724e-08
-0.008758698 -0.048515394 -3.7820107e-07 -4.2148213e-07 -3.081079e-09 0.0046776254 0.074680194 -0.02353614
-0.012549796 0.032660197 0.05914818 -0.050555635 -0.004910116 0.043704536 0.017714165 0.06038445
-0.0017340943 0.031300485 0.021013469 0.038433887 0.012925843 0.0070410077 0.053077415 -1.1336833e-21
0.012047495 0.04732044 -0.029593643 0.061032984 -0.0191397 0.03302995 -0.00040955743 0.047480974

decoder.0.weight f4 [64, 32, 7, 7]
00000000: dcd2 45bb 4858 d620 e915 82bb 063e 2ca1
00000010: f084 90bb f1cf c61f 7eb7 b3bb 460f caa5
00000020: 8972 49a6 bb6f 0fa6 82c3 ada6 12ee d625
00000030: 2226 9926 54d4 ac25 7f54 f9ba e19d 809f
00000040: 8d9b 56bb 21c4 8621 721d 96bb dfb1 9f21
00000050: 0a12 bbbb 46ea 75a5 91dd 8b26 418d 9da5
00000060: bcce 4ca6 5095 5aa5 d427 fc26 67a8 35a6
00000070: 753d 1cbc 0a12 8621 f7c4 2dbc 3e89 0da1
00000080: 509c 30bc 617d b421 a932 33bc ebd8 f422
00000090: 9fa4 b926 6f8c 87a6 c820 fb26 d45b 8a26
000000a0: abd2 e626 5065 b2a6 390c 6cbc d909 7821
000000b0: 0be0 8cbc a388 1d20 5437 75bc 943e e022
000000c0: a110 80bc 27bc 0f80 1bba 0000 34c4 1000
000000d0: a35a 0c00 deeb 1000 4c6e 0f80 1a6d 1000
000000e0: ce1a 0800 d498 0000 6146 1180 de0d 0880
000000f0: 1f50 0c00 3c59 0700 69b7 1580 cb49 0c80
00000100: d66c 0b00 28e2 0080 8397 0b00 ff55 0c80
00000110: c18f 0580 52e3 0500 29f2 0b80 7ceb 0280
00000120: 76dd 0680 3dc7 0080 d826 1080 fab4 0380
00000130: 5964 0280 990c 1580 59fd 0200 8beb 0f00
00000140: 2fc2 0180 f96e 0680 cf6b 1380 b821 0d80
00000150: e9c1 1280 2cfe 0000 cca7 0380 c552 0700
00000160: 996f 1000 4885 0600 c95a 0c00 b147 0880
00000170: 4c52 0b00 2178 0580 b1f8 0d80 a4f5 0b80
00000180: c34a 1100 5fbf 1000 c102 16bb 5dba bbbc
00000190: 869f 6fbb 7c85 e73b 5456 52bb 4b6d 363c
000001a0: eea6 cdbb 05cf d7ba 5c7a d53c 5869 cebb
000001b0: 9b9e d13c 7c26 09bd af3d 28bc 06a0 74bc
000001c0: 840d b6bb 739a a7bb f74a 4dbc eef0 8dbc
000001d0: a237 96b9 c2d9 64bb 5bb6 b2bb 7c0a a9bb
000001e0: a0dc fc3c 05b9 15bc d1f5 973c 255b 3dba
000001f0: c716 2abc 8bac b5bb 4c9a 073d c0cb 02bd
00000200: c40e 07bc 6143 27bd 34f6 0e3b c614 c43c
00000210: c254 563a 2878 4dbd a7ff ca3c e823 ed3c
00000220: 7973 953c 39c6 553b 69de ffbb c4fb 9dbc
00000230: 8e24 98bc 6fa6 4c3c 34d5 fbbd dde6 a0bb
00000240: 5aab fabb 6c0c e63b 5868 15bc 91c9 a33c
00000250: 78aa beb8 f983 d038 8fa3 3b3b 165d 1b3c
00000260: 4471 a2bc 26d9 a03c ac33 a9bc b2b4 b23c
00000270: 85bf 903d 544d cd3c aaa9 8d3a 208c 0cbd
00000280: c64d 89bc d980 a73b bfa5 9cbc 5803 e4bc
00000290: f462 5a3c b7eb 603b 09fc 7139 e380 d8bc
000002a0: 5903 c23b c169 073d 3723 1f3c 7cce a3bc
000002b0: 4672 0d3c ac4f 10bc 0e55 02bb ead4 bd3b
000002c0: 7b80 76bc 8a85 c0bb eae3 89bc b62f 943c
000002d0: 1d31 ae3c 5a64 c53b a98c c5bb 31f0 b4bc
000002e0: 1a89 28bd af03 9885 2722 17bd 71c2 3bbb
000002f0: 0003 61bc ce01 15bb e4ff 833b 97cc 0abd
00000300: 48ae d7b8 daa9 83bb 4410 4abc 60f1 cc3b
00000310: 7fca 33bb f7c4 b8bb 8808 e6bb 3234 f7bc
00000320: 585b daba c8e8 95ba 305e bdbc a0e3 abbc
00000330: e591 bb3b 74f4 483d 2188 dd3b b7a9 733b
00000340: 55ea edba 2e2b 893c 0c66 b8bb 8d5a c5bb
00000350: d338 0fbc c655 65bd 0cd6 37bb 9625 45bc
00000360: b5ee b9bc d8f5 693c b5d7 3cbc 59c1 c1bb
00000370: 7b1c 63b8 cc42 afbc 0c39 4e3a 03d0 7b3c
00000380: 4225 3aba 41fd b3bb cd7f 38bb 8192 68bd
00000390: fbfd 31ba c6f4 c9bb 3985 e3bc 6c23 8cbb
000003a0: 2387 37bd 9d4b 19bc f894 dfbc 7c49 88bc
000003b0: 0f16 373c 9242 5abc 4c4f 19bb 1099 703c
000003c0: 4f9a 9abb d1a1 2b3c 8bbb 47bb acd3 f43b
000003d0: aa45 e3bb 9ce8 e9bc 15c2 0abc 12b5 f1ba
000003e0: 3f6b 9bba 3d47 a4bc e835 1cbd ba3a d9bc
000003f0: 1e04 8f3c 5eec c73c 1d2a d33d 7dcc 073d
-0.0030185496 3.631143e-19 -0.003969897 -5.8357954e-19 -0.0044103786 8.420027e-20 -0.0054845205 -3.5051764e-16
-6.989111e-16 -4.9764514e-16 -1.2057279e-15 3.7284405e-16 1.0626844e-15 2.9981123e-16 -0.0019022374 -5.44713e-20
-0.0032746524 9.132108e-19 -0.004581147 1.0821341e-18 -0.0057089375 -2.1329738e-16 9.705118e-16 -2.7330876e-16
-7.1056895e-16 -1.8959075e-16 1.7496808e-15 -6.302522e-16 -0.009536137 9.084968e-19 -0.010606042 -4.7954297e-19
-0.010779455 1.2230462e-18 -0.010937371 6.6366003e-18 1.2881574e-15 -9.405571e-16 1.7425509e-15 9.600564e-16
1.6016558e-15 -1.2378692e-15 -0.014407211 8.40387e-19 -0.017196676 1.3343627e-19 -0.0149668045 6.078158e-18
-0.01563293 -1.445029e-39 6.6762e-41 1.539752e-39 1.13454e-39 1.553981e-39 -1.4171e-39 1.508506e-39
7.443e-40 5.4824e-41 -1.58645e-39 -7.39659e-40 1.130768e-39 6.7486e-40 -1.99434e-39 -1.128498e-39
1.049233e-39 -8.113e-41 1.064543e-39 -1.132876e-39 -5.10747e-40 5.40725e-40 -1.097061e-39 -2.68147e-40
-6.30458e-40 -7.1473e-41 -1.483302e-39 -3.40429e-40 -2.19669e-40 -1.933065e-39 2.74555e-40 1.46203e-39
-1.61495e-40 -5.90822e-40 -1.783549e-39 -1.205957e-39 -1.722601e-39 9.118e-41 -3.357e-40 6.7254e-40
1.509402e-39 5.98825e-40 1.134594e-39 -7.60402e-40 1.039713e-39 -5.02272e-40 -1.283075e-39 -1.09831e-39
1.588023e-39 1.538019e-39 -0.0022889825 -0.022916013 -0.003656359 0.007065473 -0.0032094913 0.011134456
-0.006276003 -0.0016464895 0.026059322 -0.006299179 0.025588324 -0.033483967 -0.010268613 -0.014930731
-0.0055558104 -0.0051148473 -0.01253008 -0.017326798 -0.0002865168 -0.0034919833 -0.0054538674 -0.0051587205
0.030866921 -0.00913835 0.018549832 -0.00072233594 -0.010381407 -0.0055442504 0.033106133 -0.031932592
-0.0082432665 -0.040835742 0.002181423 0.023935687 0.0008176082 -0.050163418 0.024780108 0.028947785
0.018243538 0.003261937 -0.007808496 -0.01928509 -0.018572118 0.012490853 -0.12296525 -0.0049103335
-0.007649821 0.007020524 -0.009119116 0.019993575 -9.091658e-05 9.942795e-05 0.0028631424 0.009482643
-0.0198294 0.019634794 -0.020654522 0.021814678 0.070677795 0.025061287 0.001080801 -0.03431332
-0.016760718 0.0051117954 -0.019122003 -0.027833626 0.013329256 0.0034320184 0.00023077441 -0.026428645
0.005920809 0.03305984 0.009712986 -0.01999592 0.008633202 -0.008808058 -0.0019887122 0.0057932036
-0.015045281 -0.005875294 -0.01683231 0.018089157 0.021263653 0.0060239257 -0.006028731 -0.022087188
-0.041146375 -1.4295364e-35 -0.036897805 -0.0028649832 -0.013733625 -0.0022736671 0.0040283073 -0.03388652
-0.00010284461 -0.0040180506 -0.01233298 0.00625436 -0.002743393 -0.0056387144 -0.00702006 -0.030176256
-0.0016659303 -0.0011437172 -0.023116201 -0.020982563 0.005724179 0.049061254 0.0067606126 0.0037180015
-0.0018151501 0.016744222 -0.0056273993 -0.0060227574 -0.008741575 -0.055990003 -0.0028051166 -0.012032887
-0.022696832 0.014279805 -0.011526038 -0.0059129414 -5.4147542e-05 -0.021394156 0.0007866777 0.015369418
-0.0007100889 -0.0054928367 -0.0028152347 -0.056780342 -0.000678986 -0.0061632125 -0.027773486 -0.0042766836
-0.04480661 -0.0093564065 -0.027292714 -0.016636603 0.011174693 -0.013321536 -0.0023393212 0.01468493
-0.004718102 0.010475592 -0.0030476775 0.0074715223 -0.006935795 -0.0285533 -0.008469124 -0.0018440804
-0.0011857523 -0.0200535 -0.038137347 -0.02651726 0.017458018 0.0244047 0.10310767 0.033154

decoder.0.bias f4 [32]
00000000: 0a90 4abc 4270 b999 9ccb a93d 1ea9 913d
00000010: 0166 c23d 8eba 953d 12b7 753d 4243 4c3e
00000020: 592e 3d3e 31c7 243d 7d0f cd3d fdef a23d
00000030: 7c83 143d 0375 ac3d 68f9 323d 3296 d83d
00000040: a1b6 ea3d 930b a73c ef28 4c3e 5fa1 0c3e
00000050: 44dc 3fac 0b42 0b3d 562e cb3d e8a1 f03d
00000060: 6c4b c73d f290 d43d c72d 083e ebe7 9f3d
00000070: ceed 5e3e 41f1 c53c f62c ba3d ab58 c63d
-0.012363443 -1.9173892e-23 0.082907885 0.07112335 0.09492112 0.07310973 0.059989043 0.19947532
0.18474711 0.040229026 0.1001272 0.079559304 0.036258206 0.08420756 0.043694884 0.105755225
0.11460615 0.020391261 0.1993749 0.13733433 -2.7265004e-12 0.03399853 0.09920947 0.11749631
0.097311825 0.103792086 0.13298713 0.07807907 0.21770403 0.02416289 0.09090607 0.09684881

decoder.2.weight f4 [32, 16, 3, 3]
00000000: 86af 33b9 31d3 90bb e554 94bb 1a04 fcb9
00000010: a0cb a13a 1ca4 403b 7855 a33c 4db9 e7ba
00000020: 359f 9abc 49d6 d23c aa5e 6dba 3aac 70bb
00000030: a9fd 7b39 387c 283b 6470 953b a861 963b
00000040: bbcb 7d3b dc27 133b 0165 86ba 7749 4bbb
00000050: 9dbe 95bb e1db 30ba 5114 093b d53d bd3a
00000060: 0b0c c3bb 10d7 61b7 74df acbc 8505 0cbc
00000070: f3d1 bebb 70e6 81bc a57a 9eba b282 e23a
00000080: 59d6 04b9 9b0d c33b 95a6 2fbb dd65 08bd
00000090: 7135 ecbb 6a4a 9ebb a92a 8bbb 6d25 753a
000000a0: f5aa b4bb 5e75 833b a24f b83b 486f f5bb
000000b0: 9bfc 34bc 2b9b c5bc 9169 463b d885 9f3b
000000c0: 18e5 ca3b 8f33 8c39 1481 a83b 647b adbb
000000d0: 3185 64ba 4e6a 843c 8b60 9f3c 97a1 b73c
000000e0: 7794 c13c 8c21 8e3c f59f b03c 1bb4 963c
000000f0: ce3f 533c 43c4 8b3c 7a98 813c 8f08 1cba
00000100: 174d 9539 dc32 393b 9b77 8a3b 62ac a93b
00000110: f73b b73b 4a60 86ba 2311 413b 664e e2ba
00000120: c075 55bc 579b 54bc 8995 883c 95e8 0d3a
00000130: 5a26 00bc c514 c13b 8c90 863c c13f 24bc
00000140: 6d8e ef3b 3a6f 2aba 00e2 823a a50e 31bc
00000150: b8e9 75bc 412c a7bb 7e4e 49bc ddee ce3b
00000160: 82df e13a 2673 473c 1811 c9bb 8c6f b0bb
00000170: a851 52bc 7007 8ebb 34c4 0c3a 9b4e 01bb
00000180: 4687 913c ec2e 7abb 5451 0abd f10b c53c
00000190: c606 9fbb d5ca fdba 0a4b afba e25d e439
000001a0: d955 6f3b 42f1 a53c 07a5 46bb 7215 38bb
000001b0: cf8e 34ba 48f8 0dbb f143 703a c61e 873b
000001c0: 9e6b 6e3b 386e 723b 4a84 0e3c 40c7 973a
000001d0: 1457 f9ba 9111 683b 3622 96bb 6c0a 6dbc
000001e0: eda7 fb3a 5777 343b 17f5 6f3b 1f77 d23c
000001f0: 1ab1 1b39 9481 97bc 3f06 b23a 53ac 16bb
00000200: 0198 7d3c f811 4eba cf8d 2bbc 57d5 903b
00000210: df30 1ebc 0dd5 45bc 35b5 853b 6768 28bc
00000220: d317 22bb b5e4 143b 0b52 caba c5be 78bb
00000230: bc99 94bb 9be7 a2bc 7a31 20ba 304a b83c
00000240: 21c2 0600 e726 0580 7ded 0700 ad85 0a80
00000250: d68a 0600 d34c 0880 cd52 0500 ee10 0100
00000260: 32d6 0180 8036 0980 91fc 0100 b418 0700
00000270: d330 0480 c71e 0380 6fc0 0180 6c68 0100
00000280: 9aa7 0500 f6b9 0700 11ba 0880 7769 0880
00000290: b8b6 0280 1d06 0800 489e 0700 ed56 0880
000002a0: 3b62 0480 3768 0080 8dd5 0480 d6e5 0a80
000002b0: b54b 0980 4622 0700 6c29 0b80 9cf4 0400
000002c0: b27e 0180 b408 0780 d079 0880 3ae0 0000
000002d0: 917c 0580 2308 0a80 ef8e 0880 f645 0280
000002e0: 13eb 0080 24c1 0700 add9 0200 87be 0a80
000002f0: c064 0000 e880 0880 7d75 0800 f4dc 0600
00000300: 6e01 0b00 b59f 0c80 a608 1300 7b46 0280
00000310: 3000 0980 640e 0b00 0bf3 0d80 af76 0580
00000320: 10ca 0900 2752 0400 f0dc 0400 b50a 0680
00000330: ee07 0100 4e26 0900 b117 0c80 1279 0300
00000340: 33a4 0480 fd47 0a00 0f24 0200 b435 0900
00000350: 5f29 0500 bb29 0280 7206 0a80 8bba 0980
00000360: b8bd 0880 c81e 0c80 001e 0480 c152 0080
00000370: 7840 0780 7dc6 0500 09fe 0600 3c76 0780
00000380: 6635 0600 7227 0a00 1cd5 0280 3cb4 0280
00000390: 839e 0b00 7063 0a00 c021 0680 aa44 0b00
000003a0: 632a 0d00 7e78 0c80 b936 0100 aa04 0700
000003b0: fa1f 0a80 eb28 0880 9929 0600 57e6 0880
000003c0: 2ae2 0100 d47f 0180 2890 0200 eff7 0400
000003d0: a736 0880 1af2 0980 4ed8 0900 331e 0800
000003e0: 9c6b 0800 f59b 0800 ff63 0980 9077 0000
000003f0: b63b 0280 8b44 0880 f53f 0680 62ea 0880
-0.00017136158 -0.004419707 -0.004526722 -0.0004806824 0.001234401 0.0029394692 0.019938216 -0.0017679125
-0.018874744 0.025736945 -0.00090549386 -0.0036723749 0.00024031721 0.0025708806 0.004560517 0.0045892783
0.003872617 0.0022454178 -0.001025349 -0.003101913 -0.004569842 -0.00067466317 0.002091665 0.0014437983
-0.0059523634 -1.3461118e-05 -0.021102645 -0.008546238 -0.0058233677 -0.015856951 -0.0012090994 0.0017281382
-0.00012668352 0.0059525496 -0.0026802171 -0.03330027 -0.007208519 -0.004830648 -0.004247029 0.0009351585
-0.0055135437 0.004011794 0.0056247273 -0.0074900724 -0.011046554 -0.024121841 0.0030275325 0.0048682503
0.006191861 0.00026741295 0.0051423404 -0.0052942503 -0.0008717357 0.016163971 0.019455215 0.02241592
0.023630364 0.01734998 0.021560648 0.018396428 0.01289363 0.017061358 0.015819777 -0.0005952203
0.0002847693 0.0028259074 0.004225684 0.0051780203 0.005591865 -0.0010252085 0.0029459677 -0.0017265796
-0.013028562 -0.012976489 0.016672866 0.00054133806 -0.007821644 0.0058923685 0.016426347 -0.010024966
0.0073106796 -0.00065015594 0.0009985566 -0.010806714 -0.015009336 -0.005101711 -0.01228678 0.006315096
0.0017232748 0.01217345 -0.006136071 -0.005384391 -0.012836851 -0.0043343827 0.0005369813 -0.001973069
0.017764699 -0.003817494 -0.033768967 0.024053546 -0.0048531024 -0.0019362817 -0.0013373804 0.00043557497
0.0036519675 0.020256642 -0.0030310766 -0.0028088954 -0.0006887735 -0.002166288 0.00091653975 0.0041235415
0.0036380063 0.0036991965 0.008698532 0.0011579767 -0.0019023144 0.003541086 -0.004581715 -0.014467817
0.0019199826 0.0027536952 0.003661459 0.025691567 0.00014847927 -0.018494405 0.0013582184 -0.0022990897
0.015478135 -0.0007860954 -0.0104708215 0.0044199633 -0.009655206 -0.012074721 0.0040804395 -0.010278798
-0.0024733439 0.0022719328 -0.0015435828 -0.0037955504 -0.004534928 -0.019885829 -0.0006110888 0.022496313
6.20653e-40 -4.73133e-40 7.28043e-40 -9.66309e-40 6.00818e-40 -7.62243e-40 4.88881e-40 9.7909e-41
-1.68674e-40 -8.4607e-40 1.82439e-40 6.5171e-40 -3.84857e-40 -2.86547e-40 -1.60868e-40 1.29295e-40
5.19302e-40 7.09559e-40 -8.01432e-40 -7.72518e-40 -2.49218e-40 7.36877e-40 6.99629e-40 -7.65867e-40
-4.0258e-40 -3.7385e-41 -4.4395e-40 -1.000805e-39 -8.53678e-40 6.55143e-40 -1.02505e-39 4.55091e-40
-1.37285e-40 -6.4597e-40 -7.78382e-40 8.0437e-41 -5.03863e-40 -9.21274e-40 -7.85959e-40 -2.08768e-40
-8.4329e-41 7.12134e-40 2.61758e-40 -9.86703e-40 3.6142e-41 -7.80927e-40 7.76831e-40 6.30276e-40
1.010703e-39 -1.159318e-39 1.747977e-39 -2.08955e-40 -8.26587e-40 1.015353e-39 -1.281049e-39 -5.01753e-40
8.99006e-40 3.96813e-40 4.466e-40 -5.54854e-40 9.468e-41 8.4026e-40 -1.110525e-39 3.18938e-40
-4.26246e-40 9.4418e-40 1.96606e-40 8.45785e-40 4.74019e-40 -1.98641e-40 -9.20667e-40 -8.93438e-40
-8.02742e-40 -1.113068e-39 -3.78104e-40 -2.9687e-41 -6.65976e-40 5.30382e-40 6.42144e-40 -6.85263e-40
5.70169e-40 9.32505e-40 -2.6012e-40 -2.48327e-40 1.067054e-39 9.54026e-40 -5.6312e-40 1.034822e-39
1.209067e-39 -1.14525e-39 1.11466e-40 6.44522e-40 -9.29826e-40 -7.49363e-40 5.65935e-40 -8.17314e-40
1.72968e-40 -1.37692e-40 2.35385e-40 4.56284e-40 -7.5429e-40 -9.13369e-40 9.04115e-40 7.45517e-40
7.73287e-40 7.90631e-40 -8.62391e-40 4.2891e-41 -2.05091e-40 -7.59273e-40 -5.73956e-40 -8.18765e-40

decoder.2.bias f4 [16]
00000000: 5795 893d 0f20 233d 03e8 ad3d f9a0 623b
00000010: 284d b53c ed2b 213d 5ce4 4d3e 1193 533d
00000020: 75f7 2a3c ce71 58bb 89cf 4a3c 2f3e 6d3d
00000030: 0b73 b33a e6b3 0cbd 1077 f33d b614 db3d
0.067179374 0.039825495 0.08491518 0.003458081 0.022131518 0.03934853 0.20106643 0.051653925
0.010434975 -0.0033026817 0.012378582 0.05792063 0.0013690902 -0.034351252 0.11887944 0.1069731

decoder.4.weight f4 [16, 3, 3, 3]
00000000: 6bc5 483b 7e7a febc 6bf7 aabb e999 b33d
00000010: 88ce 0e80 bcde 173e 298e eebd 2ed1 033e
00000020: 6505 0c3e fefd 83bc cd52 ee3d ab31 943d
00000030: dc21 313e 8be9 d03e 0830 b73d 1fa7 ad3d
00000040: 74fa 223e da6f 35bb df3d 233e bcdb 303e
00000050: 8624 dbbc 7263 f53d d4c1 b63e aaf5 883d
00000060: 9984 023e 90a0 9e3d 701c dc3d 3c48 5a3e
00000070: 0040 ed3e e035 8d3e eb72 9a3e b250 0b80
00000080: a96f c53e 6c6d 0cbc ce8d 7b3d 981b c23c
00000090: 3f66 f23d ca54 823e 95f0 d73d ea44 75bb
000000a0: 4f2f 113e 4523 443d c6eb 51be 31db 93be
000000b0: 7742 77be 3ec9 e43d 898a 9d3e c561 1b3e
000000c0: 87b9 c73d 74d9 a93e ef85 283e 1d32 c9bd
000000d0: 23f6 08be cdae 02be a707 3abd e95f 043d
000000e0: fef0 ef3d fc26 ae3d af6d 0580 acce be3d
000000f0: f8a0 4e3d 036b d83d 28a1 f73d 0a2f 4f3d
00000100: ec06 1e3e 9e85 223d e16a 3b3e 2d6e 133d
00000110: 8892 043e 3508 a43d 8605 103e fd6f 6c3e
00000120: 7199 e5bc bbcf 863e 715b 243e 73b1 5e3e
00000130: da0b 673c 068b 3d3e f83d 84bc 9ecd 9f3c
00000140: f3b1 d43d 011e afbc 2f73 b3bd 9d9a 883d
00000150: d4d7 52bd e35e 0600 4cf3 253e 127c 983c
00000160: 2079 adbd db7f 813c ff42 eb3c 37aa af3d
00000170: e4f2 183e fb3c a93d 5955 dc3e 48e6 db3e
00000180: 69f9 4b3c fe2d 103e 56a5 2f3e 228a 12bd
00000190: d8cb e0bc 5dd4 dc3d bc61 543d 0796 b43e
000001a0: 0c9a cb3e dd3f 0ebd f6ce 153e 0c47 193e
000001b0: c938 9d3b d855 45bd e039 09be e545 553d
000001c0: 3354 0f80 6317 f5bd 5ca4 e63d 5967 8f3d
000001d0: 24a4 b6bd fb8e 82bb 3aab 693c dda3 3cbd
000001e0: 75f9 9f3d 380b a53d 1c1f 76bc 67bf 143e
000001f0: 7691 213e fbc4 fd3c 8246 073d 8fe4 233e
00000200: 8b0e eb3c 0c13 793e a5b0 fd3e 9c0d 8e3e
00000210: 476c 923e 45c3 f63e 4f77 883e 5e1d a4bd
00000220: f72b 34be 2b87 e1bd bd17 4cbe bcd2 0c80
00000230: 9a85 4abe fab4 54be d643 b8be aa29 49be
00000240: c260 76bd ce3d 28be 1ab0 d4bd 07f9 34be
00000250: 7a35 bdbe e3f0 3abe b2d5 43be a00c acbe
00000260: f8d9 47be 733f d3ba a240 cebd 8d18 14bc
00000270: 45d8 f9bd fed5 3fbe d5b3 44bd 8ff8 09be
00000280: 7026 48be 4068 8cbd 6dc4 093d f13a 533d
00000290: 0a50 f53a e849 0d3e 9308 0f00 ec9b 8e3e
000002a0: 7a47 bf3d 248b 993e cd95 163e 3dd0 d13c
000002b0: 481b d03c 99c6 e53c 8309 c23c 8b76 213e
000002c0: 4d65 093e ebf7 453d c76f 013e d68b 6e3d
000002d0: d15f bcbd ee21 48be a3c5 0dbe f98e 16be
000002e0: aef2 c7be f4d2 7cbe df7f c4bb 5ed7 4cbe
000002f0: c0e3 65be a54a 433d 9fba 2b3e a28a 413b
00000300: 6e59 8d3e 4387 0b00 18c3 a63e 0d1e 303e
00000310: de6f 903e 0391 a03d dee4 2c3d 25e8 bcbd
00000320: 0990 6fbd 6f2f dfbc 33f4 d4bd ca49 95bd
00000330: 8ec1 0f3d 12da fcbc f118 8ebd 5b68 cc3c
00000340: 8a63 8a3d af07 e0bb c730 3a3e 745e e63e
00000350: 6961 743e 162f f23d 419b b43e 9978 d73d
00000360: d5ad 13be 74f1 c3bd 69d2 e03d e32f 21be
00000370: 97ec 0e80 30b6 cc3e fec8 ee3b 640a b53e
00000380: 151d f23e 49cf 1cbe 2d3d 45be f760 783c
00000390: 87ce 95be 0ce7 49be 8b03 f03d de6a 02be
000003a0: c12f 9b3d 7254 713e 7bbc 1abe d6bf 3ebe
000003b0: 9d62 043d 0c02 83be 6ae6 28be fd68 013e
000003c0: 4c0f eebd ac74 8d3d 785a 643e 0f90 f7bc
000003d0: 1ab3 a43c 9275 5b3e f762 1dbd f02e 0800
000003e0: 38b0 153f e398 53bd 3287 3c3b cc78 a93e
000003f0: 24b3 b9bb 52be 0e3d 76de 753e 933a 17bd
0.0030635248 -0.031064268 -0.005217483 0.087695904 -1.359786e-39 0.1483106 -0.11648209 0.12872764
0.13673933 -0.016112324 0.11636887 0.07236036 0.17298073 0.4080318 0.08944708 0.084791414
0.15915853 -0.0027685077 0.1594157 0.17271322 -0.026750814 0.11981858 0.35694754 0.06687482
0.12745894 0.077454686 0.107476115 0.21316618 0.4633789 0.27580166 0.301658 -1.039138e-39
0.38561752 -0.00857101 0.061414532 0.023694798 0.11835908 0.25455314 0.10543934 -0.003742511
0.14178203 0.0478852 -0.20500097 -0.28878167 -0.24146448 0.111711964 0.30769756 0.15174015
0.097521834 0.33173716 0.16457342 -0.098240115 -0.13375144 -0.12761994 -0.045417454 0.03231803
0.117158875 0.085035294 -4.98525e-40 0.09316763 0.05044648 0.10567286 0.12091285 0.05058197
0.15432328 0.03967821 0.1830249 0.035993744 0.12946522 0.08009378 0.14064607 0.23089595
-0.028027268 0.2633036 0.16050507 0.21747379 0.014101947 0.18510064 -0.01614283 0.019507226
0.103855036 -0.021376612 -0.08762204 0.06670115 -0.05147536 5.85052e-40 0.16206092 0.018613849
-0.084703684 0.015808037 0.02871847 0.08577388 0.14936405 0.08263584 0.43033865 0.42949128
0.012449601 0.14080045 0.17152914 -0.035776265 -0.02744095 0.107826926 0.05185102 0.35270712
0.39765966 -0.034728874 0.1462973 0.14968508 0.004798029 -0.04817757 -0.13400984 0.05206861
-1.407737e-39 -0.11967351 0.11261818 0.07002134 -0.08918026 -0.0039843298 0.014262015 -0.04605471
0.07811252 0.080587804 -0.0150220655 0.14526139 0.15778145 0.030977717 0.033026226 0.16005157
0.028693458 0.24323672 0.49548832 0.27744758 0.28598234 0.48195854 0.26653525 -0.08013414
-0.17594896 -0.11012109 -0.1993093 -1.177623e-39 -0.19777527 -0.20772162 -0.35989255 -0.196448
-0.06015087 -0.16429827 -0.10385151 -0.17673121 -0.36954862 -0.18255953 -0.19124487 -0.33603382
-0.19516742 -0.0016116932 -0.100709215 -0.0090390565 -0.12199453 -0.18733975 -0.048023064 -0.13473724
-0.19545913 -0.068558216 0.03363459 0.051569883 0.001871587 0.13797724 1.380608e-39 0.27853334
0.09339805 0.29988968 0.14705582 0.025611991 0.025403634 0.0280488 0.023686176 0.15767877
0.1341755 0.048332136 0.12640296 0.058238827 -0.09197963 -0.19544193 -0.13844924 -0.14702977
-0.39052337 -0.24689847 -0.0059966887 -0.20004031 -0.22450161 0.04767861 0.16770409 0.0029532094
0.27607292 1.058713e-39 0.3257072 0.17198963 0.28210348 0.07840159 0.042210452 -0.092239656
-0.058486972 -0.027244298 -0.1039814 -0.07289465 0.035096698 -0.030865703 -0.06938351 0.024952104
0.06757267 -0.0068368535 0.1818267 0.44993937 0.23865284 0.11825387 0.352747 0.10521049
-0.1442178 -0.09567538 0.109776326 -0.15740924 -1.37057e-39 0.39982748 0.0072871437 0.3535949
0.47287813 -0.15313448 -0.19261618 0.015159837 -0.2925913 -0.19717044 0.11719426 -0.12736079
0.07577468 0.2356737 -0.15110962 -0.18627867 0.032320607 -0.255875 -0.16494146 0.12637706
-0.116240114 0.06907019 0.22300136 -0.03022006 0.020104934 0.21431568 -0.03842446 7.51522e-40
0.58472013 -0.051659476 0.0028767106 0.33099973 -0.005667107 0.034849472 0.24010643 -0.036921095

decoder.4.bias f4 [3]
00000000: 81a1 53bc 98f0 533e 5bf3 063e
-0.0129169235 0.20697248 0.1317877
