models/conv_autoencoder_trained_on_bing.pth (torch_old, 846066 bytes, 12 tensors)

encoder.0.weight f4 [16, 3, 3, 3]
0	0x3e27467c	0.16335481
1	0x3e1c8ce9	0.15288128
2	0x3e194d60	0.14970922
3	0x3c3e1896	0.011602541
4	0xbe92e793	-0.28692302
5	0xbe226ab8	-0.15861022
6	0xbe979a53	-0.29609928
7	0xbe9813e5	-0.29702678
8	0xbe11e082	-0.14245799
9	0x3e959613	0.2921606
10	0x3e3a4938	0.18191993
11	0x3e857447	0.26065275
12	0xbdadab9f	-0.0848
13	0xbe2b57cd	-0.16732712
14	0x3c3a76e2	0.011380883
15	0xbdf46c25	-0.119346894
16	0xbe9038d4	-0.28168356
17	0xbe230b5e	-0.15922305
18	0x3eacd80b	0.33758578
19	0x3dd038b6	0.10167067
20	0x3e7c742c	0.24653691
21	0x3df35e9d	0.118832804
22	0xbe5295d5	-0.20564969
23	0x3d6e5a63	0.05819167
24	0xbe4791c9	-0.19489206
25	0xbebb6a71	-0.36604646
26	0xbdfe6828	-0.1242221
27	0x3cdde14e	0.027084973
28	0x3e4e74ae	0.20161697
29	0x3d643ad3	0.05572016
30	0x3d8f0e43	0.06985142
31	0x3dbde4f5	0.09272186
32	0xbd5719eb	-0.05251495
33	0x3e1c53cf	0.15266345
34	0x3e51bb17	0.20481525
35	0x3e32f827	0.17477475
36	0x3e894ddd	0.26817217
37	0x3e70abbe	0.23503014
38	0x3d8a25aa	0.06745465
39	0x3e79cbf4	0.24394208
40	0x3e790acf	0.2432053
41	0x3d80c33d	0.06287239
42	0x3ea105c6	0.31449717
43	0x3e886be3	0.2664481
44	0x3e209865	0.15683134
45	0x3df82f9b	0.12118455
46	0x3dcbe716	0.099561855
47	0xbd27ba24	-0.040949002
48	0xbc0df500	-0.00866437
49	0x3d1a900d	0.037735034
50	0xbdfd8a89	-0.12379939
51	0x3c592a7c	0.013254758
52	0x3d1743f7	0.03693005
53	0xbded5785	-0.11588959
54	0xbe78a03c	-0.24279875
55	0xbe00d616	-0.12581667
56	0xbde68d03	-0.112573646
57	0x3e0b904d	0.13629265
58	0x3eb32d00	0.3499527
59	0x3ea86996	0.32893056
60	0x3e1f276f	0.15542386
61	0x3eab4058	0.33447528
62	0x3eabb4f8	0.33536506
63	0xbe8972e2	-0.2684546
64	0xbe99f166	-0.30066985
65	0xbe84178a	-0.2579921
66	0x3bd968aa	0.0066347914
67	0x3e1cb3dd	0.15302987
68	0x3e2741c4	0.16333681
69	0x3bf532f4	0.0074828807
70	0x3e4cd45d	0.20002885
71	0x3e071566	0.13191757
72	0xbe4bd3ef	-0.19905065
73	0xbe0a1592	-0.13484791
74	0xbe0fb90c	-0.14035434
75	0x3deac053	0.11462464
76	0x3eb89455	0.36050668
77	0x3ea812b8	0.3282678
78	0x3e599d6f	0.21251462
79	0x3e9c1db7	0.3049142
80	0x3ea9f392	0.33193642
81	0x3df0732e	0.11740719
82	0x3d677dfa	0.056516625
83	0x3de7ff92	0.11328043
84	0xbe96306a	-0.29333812
85	0xbf09c833	-0.53821105
86	0xbe4f11b1	-0.20221592
87	0x3d134f4f	0.035964306
88	0x3d7a4bc7	0.061107423
89	0x3d6552da	0.055987217
90	0x3ecb8072	0.39746433
91	0x3e40689f	0.1878991
92	0x3ea2d0cc	0.31799924
93	0xbe721357	-0.2364019
94	0xbe8a8f37	-0.2706239
95	0x3e0d6d6e	0.13811275
96	0x3ec81b49	0.39083317
97	0x3ec1915f	0.37806222
98	0x3e9cf44c	0.30655134
99	0x3ecf6933	0.40509948
100	0x3eb1a6fe	0.34697717
101	0x3edc5d3d	0.43039885
102	0xbe04e25c	-0.12976974
103	0xbe5221c0	-0.20520687
104	0x3ddce8e7	0.1078661
105	0x3e90624c	0.28199995
106	0x3e85a6ad	0.26103726
107	0x3dd98ca4	0.10622528
108	0x3e7e8598	0.2485565
109	0x3e8d0cd9	0.27548864
110	0x3e5bd724	0.21468788
111	0x3e75ddce	0.24010393
112	0x3e5ea54d	0.21742745
113	0x3e80c639	0.25151232
114	0x3d8dae06	0.06917958
115	0x3e0f95c2	0.14021972
116	0x3e8bbe57	0.27293655
117	0x3dd9daaa	0.1063741
118	0x3e071499	0.13191451
119	0x3d4438b9	0.047905657
120	0x3e02b2a9	0.12763466
121	0x3e0b9d46	0.13634214
122	0x3e827add	0.25484362
123	0xbe3bb0a3	-0.183291
124	0x3b69accd	0.0035655976
125	0x3d586fa4	0.052840844
126	0x3e2a7b44	0.16648585
127	0x3e4b15df	0.19832562
128	0x3e06a59d	0.13149114
129	0x3e0039a8	0.12521994
130	0x3e9e2bbe	0.30892748
131	0x3e483613	0.19551878
132	0xbdc81261	-0.097691305
133	0x3cebefb7	0.028800828
134	0x3e79892c	0.24368733
135	0x3dd228ce	0.10261689
136	0x3d765e65	0.060148615
137	0x3e49387c	0.19650453
138	0x3da87041	0.08224536
139	0x3dba08a6	0.09083681
140	0x3e29cd15	0.16582139
141	0xbcea6b03	-0.02861548
142	0x3d8b33f3	0.06797018
143	0x3c6470a1	0.013942868
144	0x3e57c4a9	0.21071114
145	0xbcdbc9df	-0.026829658
146	0x3d2c6741	0.042090658
147	0x3cde31f1	0.027123423
148	0x3c232b5e	0.00995907
149	0xbdb8c004	-0.09020999
150	0x3e3a5e3f	0.18200015
151	0x3d76b503	0.06023122
152	0x3e1bb4c3	0.15205674
153	0xbe29caa4	-0.16581208
154	0xbd921684	-0.07133201
155	0xbcb40309	-0.021974104
156	0xbe3d04e5	-0.18458898
157	0xbe4bb847	-0.19894515
158	0xbe57a3c4	-0.21058565
159	0xbc27900b	-0.010227214
160	0xbde4c3ed	-0.111701824
161	0xbe00eb45	-0.12589748
162	0x3d1e0757	0.03858122
163	0x3d904822	0.07045008
164	0x3e80d3ec	0.25161684
165	0x3dfb4931	0.122698195
166	0x3d4098b5	0.047020633
167	0x3df79ae0	0.12090087
168	0x3de16a2d	0.110065795
169	0x3db536bd	0.08848331
170	0x3ba4b7f3	0.0050268113
171	0x3d3b7098	0.045761675
172	0x3e146f12	0.14495495
173	0xbcdc9464	-0.026926227
174	0x3d7a61cc	0.061128423
175	0x3d80f923	0.06297519
176	0x3e0986d4	0.13430339
177	0x3e8a6533	0.27030334
178	0x3e109b50	0.14121747
179	0x3e1cc943	0.1531115
180	0x3e4aa134	0.19788057
181	0x3debf904	0.11522105
182	0x3e1324ec	0.14369553
183	0x3dbeee55	0.09322802
184	0x3e3108d7	0.17288528
185	0x3e5ad145	0.21368892
186	0x3de7178a	0.112837866
187	0x3ca7a0b2	0.020462368
188	0xbbaacc5f	-0.005212351
189	0x3f0d3c21	0.55169874
190	0x3ea8b17c	0.3294791
191	0x3c9eca49	0.019383566
192	0xbaddded8	-0.0016927375
193	0xbedb4366	-0.42824858
194	0xbeefb514	-0.4681784
195	0x3ee16c85	0.44028106
196	0x3e2580e5	0.1616245
197	0xbe2f64d8	-0.17128313
198	0x3ecb43e4	0.39700234
199	0x3e1136da	0.1418108
200	0xbdd5afe3	-0.10433938
201	0xbe3df97d	-0.18552203
202	0xbf2823b2	-0.65679467
203	0xbf2d9461	-0.67804533
204	0x3e612801	0.21987917
205	0x3c2dd366	0.010609483
206	0xbebd2913	-0.369454
207	0x3ef05bee	0.46945137
208	0x3e88d668	0.2672608
209	0x3d5c222a	0.05374352
210	0xbc9f49bc	-0.019444339
211	0xbeca2bcd	-0.39486542
212	0xbee728cb	-0.4514831
213	0x3edd7c08	0.4325869
214	0x3e65f145	0.22455318
215	0xbe4cf5a6	-0.20015582
216	0xbe0e0787	-0.13870059
217	0xbdc1543c	-0.094398946
218	0xbd92edfd	-0.07174299
219	0xbe0009a0	-0.12503672
220	0xbe12a71e	-0.14321563
221	0xbe55ce55	-0.2087949
222	0x3e142aba	0.14469424
223	0x3dc641e6	0.09680538
224	0x3e4b044d	0.1982586
225	0x3da37902	0.07982065
226	0xbd80b62a	-0.06284745
227	0x3df000f4	0.11718932
228	0x3dfb9f55	0.122862495
229	0xbe687138	-0.2269944
230	0xbd9d1dc4	-0.07671693
231	0x3d38438c	0.044986293
232	0x3e19075f	0.14944218
233	0x3d253141	0.040330175
234	0x3d574c94	0.052563265
235	0xbe4dd137	-0.2009934
236	0xbd0396bd	-0.032126177
237	0xbd0a266c	-0.03372805
238	0xbe980278	-0.29689384
239	0xbde5c2e4	-0.11218813
240	0x3d2d4192	0.04229886
241	0xbd608ae3	-0.054819953
242	0x3e4a1714	0.19735366
243	0xbe2a5f24	-0.16637856
244	0xbecf6011	-0.4050298
245	0xbeba1e91	-0.36351445
246	0x3d4b73ec	0.0496711
247	0x3e41d0d1	0.18927313
248	0x3df47859	0.11937017
249	0xbd61dd15	-0.05514248
250	0x3d624179	0.05523822
251	0xbb6123c8	-0.0034353603
252	0xbd04b590	-0.032399714
253	0xbe78b7c1	-0.24288847
254	0xbe1ef43c	-0.15522856
255	0x3e8d742f	0.27627704

encoder.0.bias f4 [16]
0	0x3f1174e8	0.5681901
1	0xbe965dbe	-0.29368395
2	0x3eea57e5	0.45770183
3	0xbe693153	-0.22772722
4	0xbe91f20b	-0.28504977
5	0x3ec90a44	0.39265645
6	0xbe8dfeb4	-0.27733386
7	0x3e8c493d	0.27399626
8	0x3eeeedb2	0.46665722
9	0xbd056f70	-0.03257698
10	0x3e93bef3	0.2885662
11	0x3ecb6b03	0.3973008
12	0x3f034fb3	0.51293486
13	0x95fe7c0c	-1.02785494e-25
14	0xbe3b6a93	-0.18302374
15	0x3e96595a	0.29365045

encoder.3.weight f4 [32, 16, 3, 3]
0	0xbd9e351a	-0.07724972
1	0xbd5d5b64	-0.054042235
2	0x3d8fd3dd	0.070228316
3	0xbd0f7fec	-0.035034105
4	0xbe55ca1b	-0.20877878
5	0x3b1ca2ef	0.0023900827
6	0x3c909a79	0.017651783
7	0xbddc8511	-0.10767568
8	0xbd620825	-0.05518355
9	0x3cb1ea55	0.021718184
10	0x3df794bf	0.12088918
11	0xbe5e9459	-0.21736278
12	0x3a5303ab	0.0008049558
13	0x3d9cffa5	0.07665948
14	0xbe09f07f	-0.13470648
15	0xbbd9bd91	-0.0066449125
16	0xbb91746f	-0.004438929
17	0x3b9d6eb1	0.004804455
18	0x3d8221cf	0.06354105
19	0x3e803be3	0.2504569
20	0xbdf3c3ec	-0.119026035
21	0x3d4896dd	0.048972
22	0x3d806572	0.06269349
23	0xbcf45ac6	-0.02982844
24	0x3d01205b	0.031524997
25	0xbc714982	-0.014726998
26	0x3d37a284	0.04483272
27	0x3cd11551	0.02552286
28	0x3ce68c7c	0.02814316
29	0xbe2b0d11	-0.16704203
30	0xbd8a6f9e	-0.067595705
31	0x3b3640cb	0.0027809616
32	0xbe034e84	-0.1282292
33	0x3d187b57	0.037227
34	0xbcc8dc14	-0.024519004
35	0xbc656539	-0.014001184
36	0x3d6c658d	0.057714034
37	0x3e053b26	0.13010845
38	0xbe29f18f	-0.16596054
39	0x3c887217	0.016655965
40	0x3e392c41	0.18083288
41	0xbe387673	-0.18013935
42	0x3cead542	0.028666142
43	0x3ca2209f	0.019790946
44	0x3d05a219	0.03262529
45	0x3d07d86f	0.03316539
46	0x3d2a1535	0.04152413
47	0x3d090810	0.033454955
48	0xbb60f26a	-0.0034324178
49	0x3c44a4ff	0.012002229
50	0x3c3f8e2b	0.01169161
51	0x3c4c2a35	0.012461235
52	0x3bed8bc8	0.0072493292
53	0x3cd23147	0.025658263
54	0xbd2578a7	-0.040398266
55	0x3d6bf143	0.057603132
56	0xbe39b1e2	-0.18134263
57	0xbd6f04da	-0.058354236
58	0x3d80eede	0.0629556
59	0xbddb4c30	-0.10707891
60	0xbcfb5b7d	-0.030683273
61	0xbd3db01b	-0.046310525
62	0x3b300d69	0.0026863462
63	0xbda1d798	-0.07902449
64	0x3dba8bb1	0.09108675
65	0x3c6bd028	0.01439289
66	0xbe6339e6	-0.22190055
67	0x3d8c89c4	0.06862214
68	0x3d0d8a66	0.034555815
69	0xbd4ccf17	-0.050002184
70	0x3d57673d	0.05258869
71	0xba1bc103	-0.0005941542
72	0xbcb477a8	-0.022029713
73	0xbbecb8d4	-0.0072241817
74	0x3d5e5c20	0.054287076
75	0xbd8fd5a5	-0.07023171
76	0x3d192009	0.037384067
77	0x3d68cbce	0.05683499
78	0xbd020f45	-0.031752843
79	0xbd7c2069	-0.061554346
80	0x3d498e97	0.04920825
81	0xbcdb2fe2	-0.02675623
82	0xbb6ff7d1	-0.0036616216
83	0x3c3d1c57	0.011542401
84	0xbd29e9d8	-0.041482776
85	0xbc180531	-0.0092785815
86	0x3ce5ac8e	0.028036382
87	0xbdd7caef	-0.105367534
88	0x3cd3f4ae	0.025873508
89	0x3dc0ef67	0.094206624
90	0x3d3dd75a	0.046347953
91	0xbe02853e	-0.1274614
92	0x3daadfcb	0.08343466
93	0x3dbf46f2	0.093397036
94	0xbde7cb13	-0.1131803
95	0x3e162a0a	0.14664474
96	0x3d44feca	0.04809455
97	0x3b1ce2b3	0.0023938834
98	0x3c1dad3a	0.00962382
99	0x3da23cdc	0.07921764
100	0xbe06df93	-0.13171224
101	0x3e1b00ac	0.15136975
102	0x3db1fab1	0.08690394
103	0xbe1d3a06	-0.15354165
104	0x3d91dfb6	0.071227476
105	0x3d87fe6c	0.06640324
106	0x3d3bed29	0.04588047
107	0xbcc2258c	-0.023699544
108	0x3d7bf9e6	0.06151762
109	0x3e476654	0.19472629
110	0xbe7072b5	-0.23481257
111	0xbaa02a25	-0.0012219591
112	0x3dd2dc7c	0.1029596
113	0xbe1cde18	-0.15319097
114	0xbd0cf858	-0.034416527
115	0xbc87fa9e	-0.016598996
116	0xbb6cd531	-0.0036137814
117	0x919656bd	-2.3719284e-28
118	0x9026effc	-3.2922605e-29
119	0x1287c007	8.567036e-28
120	0x91103042	-1.1374468e-28
121	0x11349a14	1.4246975e-28
122	0x12bb144d	1.1806364e-27
123	0x10371c1b	3.6112038e-29
124	0x1179796a	1.968005e-28
125	0x12e083f3	1.4168915e-27
126	0x3d838d6a	0.06423457
127	0x3e3d7150	0.18500257
128	0xbdb06620	-0.08613229
129	0x3d5faf70	0.05461067
130	0x3e280924	0.16409737
131	0xbd153add	-0.03643309
132	0x3d6291dd	0.055314887
133	0x3db80537	0.0898537
134	0x3d31020b	0.04321484
135	0x3d989905	0.07451061
136	0xbbc2ba47	-0.005942616
137	0x3d7cbc07	0.061702754
138	0x3d1ad900	0.037804604
139	0x3bf8fbe8	0.007598389
140	0xbcfd57bf	-0.03092563
141	0x3c1a2bc2	0.009409847
142	0x3cfa0010	0.030517608
143	0x3c9e4058	0.01931779
144	0xbcc29173	-0.023750996
145	0x3db6c765	0.0892475
146	0x3dc00d97	0.09377592
147	0x3c430243	0.011902395
148	0x3d71f5f5	0.059072454
149	0x3d68a442	0.056797273
150	0xbb82507b	-0.003976879
151	0x3c801035	0.015632728
152	0xbb101de5	-0.0021990475
153	0xbd583b49	-0.052790914
154	0xbd7e69b7	-0.062112536
155	0xbd0561b6	-0.032563888
156	0xbcef2ad8	-0.029195234
157	0xbdcef81a	-0.10105915
158	0xbd90afcd	-0.07064781
159	0xbb84a6e8	-0.004048217
160	0xbcb361fc	-0.021897309
161	0xbd1c89ac	-0.03821723
162	0xbdd15189	-0.1022063
163	0xbcc17018	-0.02361302
164	0xbd008282	-0.031374462
165	0xbc84b95c	-0.016201667
166	0x3cb93a4f	0.022610812
167	0x3d63771b	0.05553351
168	0xbd425b90	-0.047450602
169	0x3d7bd8c9	0.06148604
170	0x3d12c34c	0.03583078
171	0xbd48351d	-0.048878778
172	0x3c6f4770	0.014604434
173	0x3d7909fd	0.06080054
174	0xbd1f9ee4	-0.03896989
175	0xbcd63e8e	-0.026152875
176	0x3ca61bc1	0.020276906
177	0xbcb20de5	-0.021735141
178	0x3cc1b6ef	0.0236468
179	0x3cd6f49c	0.026239686
180	0xbe097252	-0.13422516
181	0xbdb661db	-0.08905383
182	0xbcc31547	-0.023813857
183	0xbdeeba97	-0.11656683
184	0xbe1aca6f	-0.15116285
185	0xbdad290e	-0.08455096
186	0xbdc53273	-0.09628763
187	0xbdac1319	-0.0840208
188	0xbd945e8b	-0.07244595
189	0xbca5847c	-0.020204775
190	0x3d19bd7a	0.037534215
191	0x3d25acf4	0.040448144
192	0x3c7b6510	0.015343919
193	0x3d7089a5	0.058725018
194	0x3d7e0aba	0.06202195
195	0x3c0682d9	0.008209907
196	0x3d60e77a	0.054908253
197	0x3d676ab3	0.05649824
198	0xbd981a34	-0.07426873
199	0xbd5a9508	-0.053364784
200	0xbc5504de	-0.013001649
201	0xbd562c6f	-0.05228847
202	0xbdbf1c63	-0.09331586
203	0xbd443538	-0.047902316
204	0xbce9e01d	-0.028549248
205	0xbcd5521e	-0.026040133
206	0xbd0905f5	-0.033452947
207	0xbd4d804c	-0.05017118
208	0xbd3108c1	-0.04322124
209	0xbd184d8a	-0.037183322
210	0x3bf5e347	0.0075039
211	0xbd6b51c7	-0.057451036
212	0xbd722ca5	-0.059124608
213	0x3a4fbb67	0.00079243485
214	0xbd642774	-0.055701688
215	0xbd966cb8	-0.07344955
216	0xbb810bb0	-0.003938161
217	0x3d69b695	0.05705889
218	0x3d0d66fc	0.03452204
219	0x3d0a5586	0.033772968
220	0x3dc8e47a	0.098092034
221	0x3da97798	0.08274764
222	0x3b0873ed	0.002082105
223	0x3d6b28de	0.05741202
224	0x3d36e432	0.044651218
225	0x3baae098	0.005214762
226	0xbcc75c6c	-0.024336062
227	0xbd080918	-0.033211797
228	0x3cee20e3	0.029068416
229	0xbc0d3898	-0.00861945
230	0x3bca5710	0.0061749294
231	0x3c4eb46d	0.012616259
232	0x3c958b4e	0.018254902
233	0x3b0220d6	0.0019855998
234	0xbc6557aa	-0.0139979515
235	0xbb6deb75	-0.0036303673
236	0xbc955d0b	-0.018232843
237	0x3c04159f	0.0080617955
238	0x3d0879cb	0.033319276
239	0x3d1c978f	0.038230475
240	0xbd2bc354	-0.041934326
241	0x3d2dc6ec	0.042426035
242	0xbccb3af3	-0.024808383
243	0xbb88aa1a	-0.0041706683
244	0x3d9b4d7e	0.0758314
245	0x3d88608c	0.0665904
246	0x3cb42a31	0.021992775
247	0x3d8ecc95	0.06972615
248	0x3db32cdf	0.08748793
249	0x3c829fc5	0.015945325
250	0x3db6ff0d	0.08935366
251	0x3d88ca74	0.0667924
252	0xbd827319	-0.063696094
253	0x3ccc9428	0.02497299
254	0x3d891069	0.06692583
255	0x3c9fe415	0.019517938

encoder.3.bias f4 [32]
0	0x3cd41187	0.025887264
1	0x3e608167	0.21924363
2	0xbd2a4ff6	-0.041580163
3	0xab815c6e	-9.191656e-13
4	0xad56c60e	-1.2208469e-11
5	0x3e4e59ac	0.20151395
6	0x3e8ae592	0.27128273
7	0x3e4a7185	0.19769867
8	0xbdc238b4	-0.094834715
9	0x2433b0dc	3.8964243e-17
10	0xbe7d822e	-0.24756691
11	0x80050555	-4.6109e-40
12	0xbd6b0216	-0.057375036
13	0x3e46dccb	0.19420163
14	0xbc0a0e41	-0.00842625
15	0x3db30dfe	0.08742903
16	0x3d50dd93	0.05099256
17	0x3ea18162	0.31544024
18	0x3d0dfc88	0.03466466
19	0xbb9da037	-0.004810359
20	0xbd5e6479	-0.054295037
21	0x3df8db95	0.12151257
22	0x3d0d3e6e	0.034483366
23	0x3e3fd71b	0.187344
24	0x3dfaa693	0.12238803
25	0x3d2f35fa	0.042776085
26	0x3d295803	0.0413437
27	0xbdbfa39f	-0.0935738
28	0x3e11ecd5	0.142505
29	0x8247bf72	-1.4675153e-37
30	0x3e3b3e48	0.18285477
31	0x3b818c4a	0.0039534913

encoder.6.weight f4 [64, 32, 7, 7]
0	0x219cc4d4	1.0623071e-18
1	0x218f21a4	9.698962e-19
2	0x218791ed	9.186582e-19
3	0x219b4d22	1.0523625e-18
4	0x213a61cd	6.314869e-19
5	0x221ba206	2.1092192e-18
6	0x2151724d	7.096323e-19
7	0x219822f8	1.0309177e-18
8	0x21808e25	8.711243e-19
9	0x21db82c6	1.4874633e-18
10	0x2211be98	1.9752064e-18
11	0x2204d117	1.8000027e-18
12	0x220164c7	1.7536111e-18
13	0x21626ebb	7.671833e-19
14	0xa074a317	-2.0721566e-19
15	0x1e350ac0	9.584283e-21
16	0x218c16f4	9.492845e-19
17	0x217bb521	8.528183e-19
18	0x21acfd0a	1.1722152e-18
19	0x22398ce9	2.5146772e-18
20	0xa0b2ee89	-3.0312222e-19
21	0xa1c8b8be	-1.3601428e-18
22	0xa176a1e0	-8.356228e-19
23	0xa0dc0b6b	-3.7277005e-19
24	0x20a8e762	2.8613423e-19
25	0x20a04124	2.714816e-19
26	0xa1d52e7d	-1.4445747e-18
27	0xa20c48d8	-1.9012101e-18
28	0xa1f5a880	-1.6646447e-18
29	0xa1e8fd8c	-1.5788045e-18
30	0xa18bab12	-9.464288e-19
31	0xa0881880	-2.305551e-19
32	0xa0a4890f	-2.7873378e-19
33	0xa26c7caf	-3.204997e-18
34	0xa21def3a	-2.1404113e-18
35	0xa23cd90d	-2.5593657e-18
36	0xa23d34a8	-2.5642152e-18
37	0xa204ab67	-1.7980075e-18
38	0xa1b801ae	-1.246877e-18
39	0xa1cc9b09	-1.3864615e-18
40	0xa2b00ab1	-4.7716216e-18
41	0xa201d619	-1.7596102e-18
42	0x217b996e	8.524517e-19
43	0x21a71adc	1.132347e-18
44	0x2201e56a	1.760421e-18
45	0x221e2c65	2.1436495e-18
46	0x221b2ddb	2.1030693e-18
47	0x2220c5f5	2.178884e-18
48	0x21c6de4a	1.3475841e-18
49	0x2276ea48	3.3463244e-18
50	0x22bab2ac	5.0604577e-18
51	0x228eb632	3.8682084e-18
52	0x229101f6	3.9304405e-18
53	0x22890aab	3.714522e-18
54	0x228784d8	3.6732477e-18
55	0x228e6617	3.859727e-18
56	0x223309ab	2.4264142e-18
57	0x22883175	3.691524e-18
58	0x22286037	2.2819181e-18
59	0x222cf5ff	2.3440576e-18
60	0x2219ae97	2.0827794e-18
61	0x22232d04	2.211445e-18
62	0x2244f291	2.6691367e-18
63	0x2249da34	2.7356095e-18
64	0x22a65d20	4.509299e-18
65	0x2248d5f8	2.7218328e-18
66	0x22412b53	2.6179313e-18
67	0x222ddd31	2.356297e-18
68	0x2233273a	2.427979e-18
69	0x224df369	2.791154e-18
70	0x2239838d	2.5141818e-18
71	0x22a663f5	4.5100224e-18
72	0x223d75b0	2.567658e-18
73	0x2253bb85	2.8695104e-18
74	0x22274dba	2.2673868e-18
75	0x22307628	2.3915e-18
76	0x223fe06a	2.600413e-18
77	0x224b35cf	2.7540116e-18
78	0x22b048a6	4.7781815e-18
79	0x224b81dd	2.758038e-18
80	0x22628347	3.069821e-18
81	0x2247edd9	2.7095445e-18
82	0x224de0a3	2.7901602e-18
83	0x226593f0	3.1113605e-18
84	0x224210b5	2.6300747e-18
85	0x22936b04	3.9957737e-18
86	0x223b24a1	2.5362617e-18
87	0x224186af	2.6227678e-18
88	0x22483f13	2.7138446e-18
89	0x2252d941	2.857532e-18
90	0x227e5187	3.446658e-18
91	0x222a92c8	2.3117002e-18
92	0x22794f5e	3.378781e-18
93	0x2244f4d9	2.6692574e-18
94	0x224948c7	2.7279108e-18
95	0x22601ea1	3.0373876e-18
96	0x2259d7dc	2.9523259e-18
97	0x22724d23	3.2837952e-18
98	0x221884b3	2.0670092e-18
99	0x226ea014	3.233976e-18
100	0x2257c421	2.9241763e-18
101	0x223a7254	2.5268225e-18
102	0x21ff31c7	1.7292648e-18
103	0x21d788b5	1.4605153e-18
104	0x20d3ff4f	3.591374e-19
105	0x2218dd42	2.0716974e-18
106	0x225430c9	2.8757184e-18
107	0x2210ed6e	1.9641333e-18
108	0x22176553	2.0517957e-18
109	0x21d80995	1.4639266e-18
110	0x218ca92d	9.531549e-19
111	0x1f3272d6	3.7787956e-20
112	0x226aa4eb	3.180022e-18
113	0x22804213	3.476443e-18
114	0x2273926f	3.3010162e-18
115	0x2292acb2	3.9756228e-18
116	0x22905bb8	3.912839e-18
117	0x2271a050	3.274646e-18
118	0x213254dd	6.042106e-19
119	0x22b5282b	4.9102678e-18
120	0x22a22b98	4.3956345e-18
121	0x22abb97a	4.6546024e-18
122	0x22a74b97	4.5345475e-18
123	0x22a1b33e	4.3828917e-18
124	0x228376b9	3.5633324e-18
125	0x20f469f7	4.140533e-19
126	0x221090c0	1.959227e-18
127	0x21200880	5.422136e-19
128	0xa116e168	-5.11203e-19
129	0xa15612cd	-7.2530903e-19
130	0xa1bbd7d4	-1.2728742e-18
131	0xa14d5437	-6.956816e-19
132	0xa20f6a88	-1.943651e-18
133	0x218e6ef7	9.651666e-19
134	0xa0aa7cc9	-2.8881696e-19
135	0xa0c0b624	-3.2646596e-19
136	0xa03aa496	-1.580927e-19
137	0xa0ced7f0	-3.5040653e-19
138	0x20af5462	2.9701993e-19
139	0xa0fb0d56	-4.252988e-19
140	0x22669ad7	3.1252784e-18
141	0x2219aae3	2.0825833e-18
142	0x220136ab	1.75117e-18
143	0x21aea1ab	1.1833492e-18
144	0x217c4ad7	8.547997e-19
145	0x21d9ca1a	1.4757988e-18
146	0x212dd58c	5.8897307e-19
147	0x907626c5	-4.8544813e-29
148	0x905fc558	-4.4131024e-29
149	0x9052b5ab	-4.155515e-29
150	0x9037ce3d	-3.6249267e-29
151	0x9023c371	-3.2296644e-29
152	0x900688c0	-2.653219e-29
153	0x8fd528fe	-2.1019211e-29
154	0x90815a07	-5.102024e-29
155	0x906d7fbf	-4.683842e-29
156	0x905d4aa6	-4.3642072e-29
157	0x904a0d9b	-3.9847957e-29
158	0x903bf8c6	-3.7070895e-29
159	0x90145864	-2.9255947e-29
160	0x8fe4504c	-2.2513465e-29
161	0x9093cbb6	-5.829514e-29
162	0x90906139	-5.694778e-29
163	0x908796cb	-5.3480444e-29
164	0x90775687	-4.877882e-29
165	0x906363bf	-4.4844698e-29
166	0x9039f6b3	-3.6674867e-29
167	0x9009ecae	-2.7200817e-29
168	0x9093b7d1	-5.826449e-29
169	0x90911f6b	-5.724082e-29
170	0x908ab6b4	-5.47129e-29
171	0x907c0add	-4.9706606e-29
172	0x9066bf2b	-4.5506772e-29
173	0x903ac8c4	-3.6836696e-29
174	0x900bac11	-2.7545472e-29
175	0x909b2ee9	-6.1208997e-29
176	0x909dbfa8	-6.2220874e-29
177	0x909b98d1	-6.137217e-29
178	0x908f957c	-5.663387e-29
179	0x9082f056	-5.1646255e-29
180	0x904c949c	-4.034639e-29
181	0x900dbade	-2.7951304e-29
182	0x909d7def	-6.211961e-29
183	0x90ad4d93	-6.835599e-29
184	0x90a90613	-6.6668105e-29
185	0x90983f3f	-6.0050875e-29
186	0x9081f004	-5.125133e-29
187	0x9052d8b1	-4.158213e-29
188	0x900d5f05	-2.7880547e-29
189	0x90a07a90	-6.329771e-29
190	0x90b1b15a	-7.0087443e-29
191	0x90b2fa2a	-7.059406e-29
192	0x90a5fcd7	-6.5470586e-29
193	0x90926a9b	-5.77511e-29
194	0x906fc18e	-4.7283548e-29
195	0x901dee88	-3.1146548e-29
196	0x0001693b	1.29585e-40
197	0x0008384f	7.54884e-40
198	0x80093737	-8.46327e-40
199	0x80006673	-3.6752e-41
200	0x800ac2e1	-9.88264e-40
201	0x800063b9	-3.5774e-41
202	0x80072b20	-6.58319e-40
203	0x00043db5	3.89478e-40
204	0x8009ec1c	-9.1122e-40
205	0x800c6dde	-1.141439e-39
206	0x8006b335	-6.153e-40
207	0x800e581a	-1.317302e-39
208	0x0008fea6	8.26035e-40
209	0x80080f39	-7.40145e-40
210	0x8008bf53	-8.03318e-40
211	0x001358c9	1.776725e-39
212	0x0013644b	1.780853e-39
213	0x800c60bf	-1.136732e-39
214	0x8014ad02	-1.898773e-39
215	0x80058793	-5.07812e-40
216	0x000a87e0	9.67098e-40
217	0x0006c72e	6.22465e-40
218	0x00060c41	5.55409e-40
219	0x800bc638	-1.081298e-39
220	0x000a49db	9.4485e-40
221	0x800ce64d	-1.184642e-39
222	0x00100a7b	1.473128e-39
223	0x8008202b	-7.46224e-40
224	0x8005b58c	-5.24304e-40
225	0x0006d63f	6.2787e-40
226	0x8002c319	-2.53659e-40
227	0x80088751	-7.83226e-40
228	0x800bbfce	-1.078997e-39
229	0x0011a73a	1.621193e-39
230	0x800a6727	-9.55359e-40
231	0x000c4f1d	1.130406e-39
232	0x00139633	1.798756e-39
233	0x0015ba76	1.995435e-39
234	0x001073da	1.510928e-39
235	0x0012eed1	1.73871e-39
236	0x000a5a45	9.50738e-40
237	0x00115a13	1.593516e-39
238	0x00091c55	8.36683e-40
239	0x0004399c	3.88008e-40
240	0x8010d6dc	-1.546445e-39
241	0x00061764	5.59404e-40
242	0x00079e3f	6.99616e-40
243	0x000b849c	1.057762e-39
244	0x80028eaa	-2.34849e-40
245	0xa243f54d	-2.655729e-18
246	0xa1eee0e1	-1.6187032e-18
247	0xa1f3b0ca	-1.6513116e-18
248	0xa1d9b026	-1.4751118e-18
249	0xa218cc45	-2.070798e-18
250	0xa21d1091	-2.1286238e-18
251	0xa13426d2	-6.103775e-19
252	0xa19cbc39	-1.0620793e-18
253	0xa1385954	-6.245985e-19
254	0xa10d04b0	-4.777886e-19
255	0xa08bb51b	-2.3667361e-19

encoder.6.bias f4 [64]
0	0xa3489861	-1.0874289e-17
1	0xbc60a10d	-0.0137102725
2	0xa6b6d52d	-1.2686568e-15
3	0xbb482de8	-0.003054494
4	0xb8f6460b	-0.000117432406
5	0xa9939978	-6.554734e-14
6	0x3c8eb739	0.017421352
7	0x3c6c1b68	0.014410831
8	0xbc65d641	-0.014028133
9	0x3daef35c	0.08542511
10	0xbc5e6ea7	-0.013576186
11	0xbca6da87	-0.020367874
12	0xb09d1e8b	-1.1431934e-09
13	0x3ba43cad	0.005012116
14	0xbc4c2692	-0.012460368
15	0x3c1d9dd1	0.009620146
16	0xb0ad3a90	-1.2604051e-09
17	0xbbb1c47c	-0.005425034
18	0xbbafd05a	-0.0053654136
19	0x9291b449	-9.19523e-28
20	0x3c7fc0c9	0.015609928
21	0x95bdf4db	-7.6722806e-26
22	0xa2ddd9c1	-6.0132726e-18
23	0x3c017bcb	0.00790305
24	0x3d8097b4	0.06278935
25	0x3c5577d8	0.013029061
26	0xa736aad2	-2.5350176e-15
27	0xbadb3a73	-0.0016725793
28	0x9d13eed9	-1.957877e-21
29	0xb63d8ed4	-2.8246332e-06
30	0xbbe384a7	-0.0069433036
31	0xbb710d67	-0.003678167
32	0xbc1008bf	-0.008791148
33	0xbc1dc0db	-0.0096285
34	0xaf8ccb3d	-2.561026e-10
35	0x3cba08be	0.022709247
36	0x9dd709f6	-5.6920326e-21
37	0xbb051367	-0.0020305754
38	0xbd825d24	-0.063654214
39	0xbcdc4b4c	-0.026891373
40	0xb7feff13	-3.0397938e-05
41	0xb2da0b6f	-2.538374e-08
42	0xbba4bcad	-0.0050273747
43	0x12318231	5.6011825e-28
44	0xbb91e279	-0.0044520465
45	0xb03f87a8	-6.9678174e-10
46	0x3b44b9b9	0.0030017926
47	0xb1b12184	-5.1551883e-09
48	0x3c8b2ea3	0.016990012
49	0xbc495e76	-0.012290588
50	0x86ad1333	-6.510358e-35
51	0xbc9e983b	-0.019359699
52	0xbc1b03d0	-0.009461358
53	0xbbebece5	-0.007199871
54	0x3c84b4f8	0.016199574
55	0xbb4bb6f7	-0.0031084397
56	0xb9cf65d2	-0.0003955798
57	0xbb254507	-0.0025218145
58	0xbb964e28	-0.0045869537
59	0xa672f430	-8.429155e-16
60	0xa9bf7a9b	-8.5033726e-14
61	0xb7546151	-1.2658843e-05
62	0xb4f53483	-4.5673013e-07
63	0x3cccbf61	0.0249936

decoder.0.weight f4 [64, 32, 7, 7]
0	0xa1b79c0c	-1.2441868e-18
1	0xa3bc5a0b	-2.0421136e-17
2	0xa1853f10	-9.029123e-19
3	0xa3db4f9f	-2.3777748e-17
4	0xa13d33c8	-6.4104223e-19
5	0xa3d590f4	-2.3154896e-17
6	0x2299b8f7	4.1666572e-18
7	0x9f579196	-4.5648447e-20
8	0x21211056	5.457054e-19
9	0x21121352	4.9492294e-19
10	0x20c747e3	3.3759482e-19
11	0x211eb471	5.3771294e-19
12	0xa230df89	-2.3970786e-18
13	0x9d972b55	-4.001417e-21
14	0xa288c9e6	-3.7076642e-18
15	0xa3b4645d	-1.9558145e-17
16	0xa266d5c5	-3.1283981e-18
17	0xa3e692e0	-2.4998854e-17
18	0xa22712bf	-2.2642644e-18
19	0xa3d89334	-2.348111e-17
20	0xa305a0ac	-7.243968e-18
21	0xa1923f72	-9.910139e-19
22	0x2291e613	3.954593e-18
23	0x1fa752fc	7.086454e-20
24	0x22836642	3.561589e-18
25	0x9fbd2a9d	-8.011511e-20
26	0x20de3e54	3.7649508e-19
27	0xa00f74d3	-1.2151225e-19
28	0xa3635b9a	-1.2325092e-17
29	0xa4101ebf	-3.1251066e-17
30	0xa1ff7de6	-1.7312797e-18
31	0xa41e6150	-3.4343216e-17
32	0xa37a7927	-1.3578182e-17
33	0xa417b4fe	-3.2896212e-17
34	0xa3ca55e1	-2.1937255e-17
35	0xa37aa145	-1.3586677e-17
36	0xa34e2979	-1.11760646e-17
37	0xa3440836	-1.062692e-17
38	0xa34dea5c	-1.11627e-17
39	0xa34d1080	-1.1116566e-17
40	0xa21871db	-2.0660116e-18
41	0xa35c3e8c	-1.1939469e-17
42	0xa2389556	-2.5015708e-18
43	0xa2b4d82e	-4.9017987e-18
44	0xa1c1c1a4	-1.3129445e-18
45	0xa2e528d3	-6.21138e-18
46	0xa11ffdb0	-5.420705e-19
47	0xa2efc9da	-6.49948e-18
48	0xa26ebab1	-3.2353848e-18
49	0xa2a3b146	-4.4368934e-18
50	0xa44ce751	-4.443138e-17
51	0xa2bfbd22	-5.1970906e-18
52	0xa43f9e88	-4.1550804e-17
53	0xa2f272e5	-6.571588e-18
54	0xa43d331a	-4.1026127e-17
55	0xa2e7fef6	-6.2882626e-18
56	0xa34ae2ef	-1.0998497e-17
57	0xa33f20c7	-1.0361072e-17
58	0xa36927bb	-1.26393686e-17
59	0xa30ca858	-7.625063e-18
60	0xa39472a9	-1.6094753e-17
61	0xa284a424	-3.5952462e-18
62	0xa3b4bcc1	-1.959558e-17
63	0x238ccd97	1.5265901e-17
64	0xa49893c7	-6.6169837e-17
65	0x238caae2	1.5251202e-17
66	0xa48b0bc9	-6.0301606e-17
67	0x2383d44b	1.4292958e-17
68	0xa47c8fff	-5.476576e-17
69	0x2380d048	1.3965998e-17
70	0x230e1ef2	7.704388e-18
71	0xa3981327	-1.6487984e-17
72	0x2312b067	7.9520305e-18
73	0xa33e3481	-1.0311039e-17
74	0x22e7e59a	6.2855776e-18
75	0xa28ee24f	-3.872879e-18
76	0x2295a14d	4.0557315e-18
77	0xa38baed7	-1.5144458e-17
78	0xa40cff69	-3.0574e-17
79	0xa3aca5ab	-1.871844e-17
80	0xa3f24397	-2.6266318e-17
81	0xa3b7d712	-1.9931986e-17
82	0xa3daa0b0	-2.3703661e-17
83	0xa37bae42	-1.3643638e-17
84	0x239189de	1.577932e-17
85	0xa357f7ff	-1.17076886e-17
86	0x2390d39a	1.5702128e-17
87	0xa2ec5eec	-6.406843e-18
88	0x238e2c5c	1.5414458e-17
89	0x21023d6d	4.412701e-19
90	0x239de199	1.7117518e-17
91	0xa3043d81	-7.168758e-18
92	0xa3643dea	-1.23730156e-17
93	0xa3098231	-7.454354e-18
94	0xa32d9c1a	-9.4114046e-18
95	0xa387384d	-1.4660574e-17
96	0xa2bf713c	-5.1890545e-18
97	0xa36ca96d	-1.2829463e-17
98	0x22577321	2.9198882e-18
99	0x24045323	2.8693357e-17
100	0x221c42a5	2.1177224e-18
101	0x24097e1c	2.9813958e-17
102	0x2250bc39	2.82889e-18
103	0x240d10ee	3.058884e-17
104	0x22959f3a	4.055512e-18
105	0x229a4a70	4.1820597e-18
106	0x221c11ca	2.115136e-18
107	0x2219314b	2.0761462e-18
108	0x213db4b5	6.4274855e-19
109	0x2224d488	2.2338658e-18
110	0x9f0cae49	-2.979032e-20
111	0x21ca9b83	1.3729216e-18
112	0x22ef3315	6.4835165e-18
113	0x23ca78dc	2.195207e-17
114	0x222974cb	2.29656e-18
115	0x23b73492	1.9863164e-17
116	0x223bf541	2.5473062e-18
117	0x239519bf	1.6165516e-17
118	0x22c07114	5.216143e-18
119	0xa23a2052	-2.522481e-18
120	0x20a3a55c	2.77227e-19
121	0xa215efcb	-2.032021e-18
122	0xa0f45979	-4.1394416e-19
123	0xa2326771	-2.417826e-18
124	0xa11aa574	-5.2396205e-19
125	0xa26f9706	-3.2470491e-18
126	0xa22c4e8b	-2.3351927e-18
127	0x244ed7b3	4.4851834e-17
128	0x20ca4335	3.4264605e-19
129	0x246d0703	5.1397122e-17
130	0x217dd773	8.600488e-19
131	0x246a5903	5.0816058e-17
132	0x2168fea6	7.894168e-19
133	0x2393651d	1.5980595e-17
134	0xa19636cf	-1.0178903e-18
135	0x232f6757	9.508652e-18
136	0xa1e6dd37	-1.5643961e-18
137	0x22f3a843	6.6043436e-18
138	0xa1d8723f	-1.466697e-18
139	0x227df987	3.4419992e-18
140	0x239b3363	1.6826897e-17
141	0x241c2d46	3.3865456e-17
142	0x2348310d	1.0852409e-17
143	0x2437bb01	3.9840198e-17
144	0x233b92b7	1.0168358e-17
145	0x242ebd02	3.789033e-17
146	0x237586b6	1.3310003e-17
147	0x24093c02	2.9757968e-17
148	0x24160fdb	3.2539495e-17
149	0x241bcd87	3.3784356e-17
150	0x2429d355	3.682504e-17
151	0x2429fbff	3.6859482e-17
152	0x2436e26c	3.9656746e-17
153	0x2415f4f3	3.2516705e-17
154	0x23c5d7a2	2.1450107e-17
155	0x234d46dc	1.1128077e-17
156	0x23c4f4f1	2.13541e-17
157	0x232dd455	9.423312e-18
158	0x23c62fca	2.1487442e-17
159	0x2304d3cf	7.2005866e-18
160	0x23aa1e29	1.844421e-17
161	0x241c1718	3.384667e-17
162	0x24d7e99e	9.363715e-17
163	0x24219c32	3.5043613e-17
164	0x24e8ac12	1.0090546e-16
165	0x2420998a	3.4824522e-17
166	0x24e43367	9.896632e-17
167	0x24167954	3.2628834e-17
168	0xa20af20b	-1.8830624e-18
169	0x238cb255	1.5254357e-17
170	0xa1413906	-6.5466413e-19
171	0x23606693	1.2164785e-17
172	0x20e9b5ac	3.9591956e-19
173	0x2305d720	7.255499e-18
174	0x22588c57	2.9347754e-18
175	0x24518e96	4.5440426e-17
176	0x243602a8	3.946721e-17
177	0x245b2593	4.7519882e-17
178	0x2432daa6	3.87828e-17
179	0x245bc5d9	4.765564e-17
180	0x24230dee	3.535679e-17
181	0x24342a01	3.9066857e-17
182	0xa2758d0d	-3.3278363e-18
183	0x23e9ef80	2.5363343e-17
184	0xa2767488	-3.3400908e-18
185	0x23d7ea7f	2.340966e-17
186	0xa31062eb	-7.827202e-18
187	0x238b7200	1.5118691e-17
188	0xa42d9201	-3.7637065e-17
189	0x23826915	1.4139132e-17
190	0x23a64580	1.802719e-17
191	0x239a353d	1.671926e-17
192	0x23a88e8b	1.8274966e-17
193	0x23c39aed	2.1207556e-17
194	0x2381eb17	1.4085772e-17
195	0x23c95940	2.1830263e-17
196	0x211c8c34	5.3040413e-19
197	0xa22cb7e5	-2.34077e-18
198	0x20a8d1f4	2.8599242e-19
199	0xa26584e9	-3.110565e-18
200	0x21236a50	5.536725e-19
201	0xa25d282e	-2.9972356e-18
202	0x21a728ce	1.1327161e-18
203	0x20ebbc1d	3.9935031e-19
204	0x2245a1b1	2.6784077e-18
205	0x21818fcf	8.779446e-19
206	0x2232d9b2	2.4238745e-18
207	0x21c87701	1.3584027e-18
208	0x22123a9f	1.9817723e-18
209	0x2208f787	1.8562477e-18
210	0xa0f81d84	-4.2032366e-19
211	0xa386b56a	-1.4605141e-17
212	0x2026e3d1	1.4136125e-19
213	0xa3a14811	-1.7486176e-17
214	0x21321c7d	6.034645e-19
215	0xa3977158	-1.6419456e-17
216	0xa214d85a	-2.0172276e-18
217	0x22c13497	5.2368436e-18
218	0x23abecaa	1.8640088e-17
219	0x22f56934	6.651877e-18
220	0x23b9f577	2.0161699e-17
221	0x22f80e8d	6.723594e-18
222	0x237a2e04	1.3562271e-17
223	0x23175f66	8.205928e-18
224	0x2195d798	1.01537e-18
225	0xa2a85cc4	-4.563471e-18
226	0x21f189f1	1.6367308e-18
227	0xa2a45a8d	-4.4548163e-18
228	0x2281a8a9	3.5144096e-18
229	0xa2a184ee	-4.3779882e-18
230	0xa30a4648	-7.495878e-18
231	0xa16f2704	-8.1027987e-19
232	0x227513dc	3.3214205e-18
233	0xa2a6f821	-4.5257107e-18
234	0x2263bd28	3.0864375e-18
235	0xa2abfa59	-4.661471e-18
236	0x22c4e52e	5.336856e-18
237	0xa16aa945	-7.950631e-19
238	0xa3e862fe	-2.5195415e-17
239	0xa25338f4	-2.8625983e-18
240	0xa370571e	-1.3028874e-17
241	0xa28673dd	-3.6443448e-18
242	0xa34644c5	-1.0748164e-17
243	0xa24e1a1b	-2.7932026e-18
244	0x23bf3aa9	2.0733105e-17
245	0xa049dcbe	-1.70984e-19
246	0x242ded21	3.771425e-17
247	0xa085598b	-2.259033e-19
248	0x241d9d7a	3.4177336e-17
249	0x1fbfc5d7	8.1218945e-20
250	0x2414737f	3.2190213e-17
251	0x202bb37c	1.454365e-19
252	0x221d4e51	2.1318928e-18
253	0x23077d1c	7.344858e-18
254	0xa18f2a2a	-9.701218e-19
255	0x23051a62	7.215531e-18

decoder.0.bias f4 [32]
0	0x3ce5ee68	0.028067783
1	0x3d3190a0	0.043350816
2	0x3c29f63d	0.010373649
3	0x3d21ffe0	0.039550662
4	0xb91259d5	-0.0001395711
5	0x3ca7aa58	0.020466968
6	0xbc15349b	-0.00910678
7	0x3d7bf1c7	0.061509874
8	0x3cda4521	0.026644291
9	0x3d51e5b9	0.05124447
10	0x3e386e27	0.1801077
11	0x3c8ab920	0.016933978
12	0xbc9c8b14	-0.019109286
13	0x3d780eae	0.060560875
14	0xbcd172d4	-0.02556745
15	0x3ca0ec60	0.019643962
16	0x3d5516ee	0.05202382
17	0xbd0f0330	-0.03491515
18	0x3d3733eb	0.044727247
19	0x3e5ea8c5	0.21744068
20	0x3d11cc35	0.035595138
21	0x3e478072	0.19482592
22	0x3d57760f	0.052602824
23	0x3c2b3bc1	0.010451258
24	0x3cfe0447	0.031007899
25	0x3d882bb0	0.06648958
26	0x3d7fd16d	0.062455583
27	0x3dc1dfdc	0.09466526
28	0xbd071666	-0.032980345
29	0x3e47fd8c	0.19530314
30	0xbb53e6db	-0.0032333646
31	0x3dfc62d5	0.12323538

decoder.2.weight f4 [32, 16, 3, 3]
0	0xbd99099b	-0.07472535
1	0xbd833661	-0.06406856
2	0x3d338888	0.04383138
3	0xbd4479ee	-0.047967844
4	0xbd5a9554	-0.053365067
5	0xbd55d824	-0.05220808
6	0xbc6b3c53	-0.014357644
7	0x3bfece65	0.007776069
8	0xbc50e4d7	-0.012749872
9	0x3c1377f6	0.009000769
10	0x3c1a84b1	0.00943105
11	0x3c608b3a	0.013705069
12	0x3bbd1601	0.0057704453
13	0x3d33ff03	0.04394437
14	0xba5a9d19	-0.00083394494
15	0xbc21cda0	-0.009875685
16	0xbc91218a	-0.017716188
17	0xbc59b78e	-0.013288392
18	0xbe107791	-0.14108111
19	0xbb627565	-0.0034554836
20	0x3daaa148	0.08331543
21	0xbdb5f709	-0.08885009
22	0xbd946da1	-0.072474726
23	0xbcc9ddea	-0.02464195
24	0xbe4c4c8a	-0.19951072
25	0x3d2c7f48	0.042113572
26	0x3e872a49	0.2639945
27	0x3de82dcf	0.11336862
28	0xbd9d9ceb	-0.07695945
29	0x3da0055c	0.07813522
30	0xbd1c16f0	-0.038107812
31	0xbd7343a1	-0.059390668
32	0x3da5cf65	0.08096198
33	0x3e45f073	0.19330005
34	0xbdcb6d2c	-0.09932932
35	0x3c5ef045	0.013607089
36	0xbd07b742	-0.033133753
37	0x3db972e6	0.09055118
38	0xbdfacbc5	-0.12245897
39	0xbbadd871	-0.005305343
40	0x3c97ef8d	0.018546844
41	0xbdcb3a95	-0.09923283
42	0xbde0b776	-0.109724924
43	0x3d018987	0.031625297
44	0xbdcbc91f	-0.0995047
45	0xbcd0d8af	-0.025493948
46	0x3cddc6a3	0.027072256
47	0xbd093256	-0.03349527
48	0x3c8af295	0.016961375
49	0x3d613a91	0.054987494
50	0xbdcc2453	-0.09967866
51	0xbbbb0cfc	-0.005708335
52	0xbb868d32	-0.0041061873
53	0xbe020aa6	-0.12699375
54	0x3cc523bd	0.024064893
55	0xbcd999ba	-0.02656256
56	0x3d4b4f64	0.04963626
57	0x3dbc2255	0.09186236
58	0xbd8e3517	-0.0694372
59	0x3b6dfb55	0.0036313136
60	0xbdbc03a8	-0.09180385
61	0x3d0a2add	0.033732284
62	0x3d2b655a	0.041844703
63	0x3c2486bf	0.010041892
64	0x3c2c3f5a	0.010513151
65	0xbd120666	-0.035650633
66	0xbcde2a30	-0.027119726
67	0x3cd8a907	0.026447786
68	0x3b4fa982	0.0031686728
69	0xbc30ab76	-0.010783067
70	0x3b6b0aad	0.0035864518
71	0xbd0fe888	-0.03513387
72	0x3cfa000d	0.030517602
73	0x3dda85bf	0.10670041
74	0xbd988918	-0.074480236
75	0x3dac47c5	0.084121265
76	0x3e171d02	0.1475716
77	0xbcdf1657	-0.027232332
78	0x3bbb6271	0.0057185222
79	0x3ddbec78	0.10738462
80	0xbda34fdd	-0.07974217
81	0x3b79a99c	0.003809548
82	0x3d12445a	0.035709716
83	0x3d179664	0.037008658
84	0x3dd50c0f	0.104026906
85	0x3d67121b	0.05641375
86	0x3d36861b	0.044561487
87	0x3b953310	0.0045532063
88	0x3c3aa2df	0.011391371
89	0xbb04bb0a	-0.0020253086
90	0xbd21db1c	-0.0395156
91	0xbc6e865c	-0.014558401
92	0x3be6774f	0.0070332657
93	0xbd9d800a	-0.07690437
94	0x3d5ec48c	0.05438666
95	0xbbe07cde	-0.006850823
96	0x3d0377b0	0.032096565
97	0xbc2864a9	-0.0102779055
98	0xbbdd9668	-0.0067623146
99	0x3da90922	0.08253695
100	0x3d87f659	0.06638784
101	0x3c83c373	0.016084408
102	0x3d7df681	0.062002663
103	0x3d675bf2	0.05648417
104	0x3d83afcf	0.06430017
105	0x3c980efb	0.01856183
106	0xbbc4009c	-0.005981518
107	0x3cfe1543	0.031015998
108	0x3c04e337	0.008110813
109	0xbd0fca22	-0.03510488
110	0x3dab3644	0.0835996
111	0x3d7d5bc7	0.061855104
112	0xbdcced04	-0.10006145
113	0x3cb71eb8	0.022353515
114	0xbd59b449	-0.05315045
115	0x3d86d072	0.065827265
116	0x3dee9ea5	0.11651353
117	0x3d059ecb	0.03262214
118	0x3d09f98c	0.033685252
119	0xbd07ac8f	-0.03312355
120	0x3c2d1783	0.010564688
121	0x3db5ec98	0.08883017
122	0xbb9c3788	-0.004767362
123	0xbc84f266	-0.016228866
124	0x3c96d9c5	0.018414387
125	0xbd5963e1	-0.053073768
126	0x3d374a64	0.04474868
127	0x3d7ba252	0.061434098
128	0xbb6abe7a	-0.00358191
129	0x3da7be4e	0.081905946
130	0x3de2cd5e	0.11074327
131	0x3da56072	0.08075036
132	0x3d8514a6	0.06498079
133	0x3d55eedf	0.05222976
134	0xba96f4cc	-0.0011517047
135	0x3d0afdc0	0.0339334
136	0x3c44fed4	0.012023646
137	0x3da2fd81	0.07958508
138	0x39d88013	0.00041294153
139	0xbda40591	-0.08008874
140	0x3d09442c	0.03351228
141	0xbbe5691a	-0.0070010545
142	0x3d68efaf	0.056869205
143	0x3dae4117	0.08508509
144	0xbc5b4d78	-0.013385169
145	0xbcb3e134	-0.021957971
146	0xbc0ffa69	-0.00878773
147	0x3d6a64d2	0.057225056
148	0xbdcca982	-0.099932685
149	0xbd555b5d	-0.052089084
150	0xbca48554	-0.020083107
151	0xbc254bab	-0.010088841
152	0xbc808355	-0.015687624
153	0x3cf23153	0.029564535
154	0x3d6c50fa	0.057694413
155	0xbc9f4ef0	-0.01944682
156	0x3bbd4348	0.005775843
157	0x3d8beb0d	0.06831942
158	0xbc39f55d	-0.011350003
159	0x3ca6ed5b	0.020376852
160	0x3d8eb1f8	0.069675386
161	0x3da3b1bf	0.07992887
162	0x3d0947fc	0.033515915
163	0x3e50d6d3	0.20394449
164	0xbb8049d6	-0.003915052
165	0xbc8b9291	-0.017037662
166	0xbd7b4b9f	-0.061351415
167	0x3dccc072	0.099976435
168	0xbda2795a	-0.07933302
169	0x3c48d411	0.012257592
170	0xbda3bdfc	-0.07995221
171	0xbe2a643b	-0.16639797
172	0xbe32ce32	-0.1746147
173	0xbd39b004	-0.045333877
174	0xbdc243c3	-0.09485581
175	0xbdf2d8b5	-0.1185774
176	0xbe0e0d7a	-0.13872328
177	0xbda3f5db	-0.080058776
178	0x3e4f5812	0.2024844
179	0x3e11869a	0.14211503
180	0x3d5c33d8	0.05376038
181	0xbb1f687e	-0.0024323757
182	0xbd4be1ed	-0.049776006
183	0x3d500738	0.050788134
184	0xbc644e93	-0.013934749
185	0x3d99b6f8	0.07505602
186	0x3d67a187	0.05655053
187	0x3d98e105	0.07464794
188	0xbdd82d24	-0.10555485
189	0xbb7b9788	-0.003838988
190	0xbc79e04a	-0.015251229
191	0x3c84dbc8	0.016218081
192	0x3d3120ff	0.04324436
193	0x3cb66741	0.022266032
194	0xbdb8f8cc	-0.09031829
195	0x3d68ba29	0.05681816
196	0x3d9c19bb	0.07622095
197	0xbc6c1098	-0.014408253
198	0xbd28b4a8	-0.041187912
199	0xbc8dbb90	-0.01730135
200	0x3cf132ff	0.029443262
201	0x3d3031e0	0.043016315
202	0xbd88d916	-0.06682031
203	0x3d7677bc	0.06017278
204	0xbd8ce837	-0.06880229
205	0xbdc1c3b8	-0.094611585
206	0xbdaef781	-0.085433014
207	0xbba631d6	-0.005071859
208	0x3d830438	0.06397289
209	0xbd194148	-0.037415773
210	0xbd3d8d2a	-0.046277203
211	0x3acc7eaa	0.0015601714
212	0xbc4660d1	-0.012108044
213	0xbbfc0c47	-0.0076918933
214	0x3d66eadf	0.056376334
215	0x3df244f5	0.11829559
216	0xbca40ed2	-0.020026598
217	0xbd0b53a0	-0.034015298
218	0xbd770977	-0.06031176
219	0xbd4bca14	-0.049753264
220	0x3de07aff	0.1096096
221	0xbbcc4c23	-0.006234662
222	0x3d05c6a8	0.032660156
223	0x3d50b39e	0.050952546
224	0x3d36fd58	0.0446752
225	0x3cca857c	0.024721853
226	0x3d7944e4	0.060856715
227	0x3ccd067f	0.025027512
228	0x3c06b4ab	0.008221786
229	0x3db6848b	0.08911999
230	0x3cc1d95c	0.023663215
231	0x3deaf7e1	0.114730604
232	0x3d9a7880	0.07542515
233	0x3da529e9	0.08064634
234	0x3c99ead7	0.018788738
235	0x3d577507	0.05260184
236	0x3c9657f5	0.018352488
237	0x3dbac71a	0.09120007
238	0x3db2f5a0	0.087382555
239	0xbc6caee8	-0.014445998
240	0xbd090475	-0.033451516
241	0x3e37eab3	0.17960624
242	0x3d8ccadf	0.06874632
243	0xbdab1093	-0.08352771
244	0xbbe16c92	-0.0068793977
245	0xba7bb059	-0.0009601168
246	0xbdb50560	-0.08838916
247	0xbdb80056	-0.08984439
248	0xbe49034f	-0.19630168
249	0x3ba431d2	0.005010822
250	0xbdb2e417	-0.08734911
251	0x3cdc34f7	0.026880724
252	0xbd12101c	-0.035659894
253	0xbc80f48f	-0.015741615
254	0x3ad8c3cc	0.0016537844
255	0x3d7b6204	0.06137277

decoder.2.bias f4 [16]
0	0x3d8bfed9	0.06835718
1	0x3db9ed51	0.09078468
2	0xbd808fd3	-0.06277432
3	0x3cde5d58	0.02714412
4	0x3e153f68	0.14574969
5	0x3e0d1d24	0.13780648
6	0x3ddb4569	0.10706598
7	0x3e42d0d4	0.19024974
8	0x3d213e6c	0.03936617
9	0x3daad06c	0.083405346
10	0x3da6f5cc	0.08152351
11	0x3d8ab66d	0.06773076
12	0x3dabd15b	0.08389541
13	0x3e082dd8	0.13298738
14	0x3b462eec	0.003024037
15	0x3df0040b	0.11719521

decoder.4.weight f4 [16, 3, 3, 3]
0	0xbdaf5600	-0.08561325
1	0x3e4bf86c	0.19918984
2	0x3bb0b5d0	0.0053927675
3	0x3db2d1f9	0.08731455
4	0x3f2543b3	0.64556426
5	0xbbaf97bf	-0.0053586657
6	0x3df41d47	0.11919647
7	0x3eef1425	0.46695057
8	0x3ea0d806	0.31414813
9	0xbe0fa812	-0.14028957
10	0x3d3ebe61	0.04656828
11	0xbdc73ca1	-0.09728361
12	0xbd65fe6b	-0.056150835
13	0x3e9dbcd9	0.30808142
14	0xbe5723d0	-0.21009755
15	0x3c75dab7	0.015005759
16	0x3e8af199	0.2713745
17	0x3e2f4158	0.1711477
18	0xbdf882fb	-0.121343575
19	0x3c4da643	0.012551847
20	0xbe0c41d8	-0.13696992
21	0xbd3b9907	-0.045800235
22	0x3e66b4d3	0.22529916
23	0xbe92176e	-0.285335
24	0x3ce34912	0.027744804
25	0x3e48687b	0.19571106
26	0x3e012d95	0.12615044
27	0xbdf5db35	-0.12004701
28	0xbd987c73	-0.07445612
29	0x3d75266e	0.059851103
30	0x3da5b1d4	0.08090559
31	0x3e14f109	0.14545073
32	0x3e6183e5	0.2202297
33	0x3d074be1	0.03303135
34	0x3d6a7124	0.057236806
35	0x3d4602e5	0.048342604
36	0xbe790225	-0.24317224
37	0xbecc762c	-0.39933908
38	0xbdf572f4	-0.11984816
39	0xbe646ab1	-0.22306325
40	0xbf0d0c97	-0.55097336
41	0xbe4aa9af	-0.19791292
42	0xbdf761d5	-0.12079207
43	0xbea795e5	-0.32731548
44	0xbe4e908d	-0.20172329
45	0xbe207cd0	-0.15672612
46	0xbe688a60	-0.22709036
47	0xbc436749	-0.011926481
48	0xbcb300bc	-0.021850936
49	0xbe22e4ba	-0.15907565
50	0x3d06b84b	0.0328906
51	0x3c4dc6ee	0.012559636
52	0xbdd98571	-0.10621155
53	0xbdaa9b47	-0.08330398
54	0xbe563564	-0.20918804
55	0xbe06aff2	-0.13153055
56	0x3d7ec17f	0.06219625
57	0x3df36866	0.11885147
58	0x3f056447	0.52106136
59	0x3f0a9940	0.5414009
60	0xbec503ab	-0.3847936
61	0xbf25f48b	-0.6482627
62	0xbea813a0	-0.32827473
63	0xbe5b8967	-0.21439134
64	0xbe09b692	-0.13448551
65	0x3d9df417	0.07712572
66	0x3de9cc06	0.114158675
67	0x3f08dbf6	0.53460634
68	0x3f163268	0.58670664
69	0xbec85309	-0.3912585
70	0xbf21be16	-0.63180673
71	0xbe98973b	-0.2980288
72	0xbe67ee4c	-0.22649497
73	0xbdef6718	-0.116895854
74	0x3dc0337a	0.093848184
75	0x3db4a4b2	0.08820476
76	0x3f01865a	0.5059563
77	0x3f152f16	0.5827497
78	0xbecf5019	-0.40490797
79	0xbf19f141	-0.6013375
80	0xbe896b4b	-0.2683967
81	0xbd8fb152	-0.07016243
82	0x3bba4029	0.005683918
83	0x3e7b75bb	0.2455663
84	0xbee8fb13	-0.45504054
85	0xbea51b5f	-0.32247445
86	0x3e8877db	0.26653942
87	0xbdc68181	-0.0969267
88	0x3ecbba5e	0.39790624
89	0x3f1e1ff8	0.6176753
90	0xbdb1e891	-0.08686937
91	0xbac56cfb	-0.0015062386
92	0x3e84e773	0.25957832
93	0xbef8bdcb	-0.485823
94	0xbeaeabfb	-0.34115586
95	0x3e8c0b36	0.27352303
96	0xbdf758df	-0.12077498
97	0x3ec6c048	0.38818574
98	0x3f22d105	0.6360019
99	0xbdfe2357	-0.12409084
100	0xbd1674c1	-0.03673244
101	0x3e862092	0.26196724
102	0xbf07cd4a	-0.5304762
103	0xbec8635c	-0.39138305
104	0x3e8561ec	0.2605127
105	0xbe2dfff9	-0.16992177
106	0x3ea6bdb2	0.325666
107	0x3f235493	0.63800925
108	0x3ecacc63	0.3960906
109	0x3edf5e63	0.436267
110	0xbdfb000b	-0.122558676
111	0xbd14f258	-0.03636393
112	0xbc36a23e	-0.01114708
113	0xbe6ca189	-0.23108496
114	0xbe3fa24d	-0.18714257
115	0xbe37c572	-0.17946413
116	0xbe7e790d	-0.24850865
117	0x3ec74881	0.38922504
118	0x3ecf765a	0.40519983
119	0xbe19ba75	-0.15012534
120	0xbd93b227	-0.07211714
121	0xbda94c64	-0.082665235
122	0xbe931737	-0.2872865
123	0xbe5b76ee	-0.21432087
124	0xbe61a2c7	-0.22034751
125	0xbe891a9c	-0.26778114
126	0x3eaff68c	0.34367788
127	0x3e856eb2	0.26061016
128	0xbe66a6f5	-0.22524627
129	0xbe3c139a	-0.18366852
130	0xbeae54b7	-0.34049007
131	0xbeded52d	-0.43522015
132	0xbe8c0e98	-0.27354884
133	0xbebf16be	-0.37322038
134	0xbebfe314	-0.37477934
135	0xbc0812da	-0.008305276
136	0xbd33f142	-0.043931253
137	0xbde5b868	-0.11216813
138	0x3d7b8ded	0.061414648
139	0xbe167b25	-0.14695413
140	0xbe845191	-0.2584348
141	0x3bbc1b67	0.0057405713
142	0x3e567577	0.20943247
143	0xbe13076b	-0.14358298
144	0xbc9424e3	-0.018083995
145	0xbdf4b951	-0.11949409
146	0xbe2839d6	-0.16428313
147	0xb88155c7	-6.1671766e-05
148	0xbea1762c	-0.3153547
149	0xbeadde8d	-0.33958855
150	0xbc05ee81	-0.00817454
151	0x3ddf0a50	0.10890639
152	0xbe423989	-0.1896726
153	0xbd62ae91	-0.05534226
154	0xbe09ec7d	-0.1346912
155	0xbe50ffaf	-0.20410036
156	0xbd3a20e0	-0.04544151
157	0xbedcdf3e	-0.4313907
158	0xbeea6050	-0.45776606
159	0xbd09c944	-0.033639207
160	0x3d523169	0.051316652
161	0xbe7fea44	-0.24991709
162	0x3e6b2125	0.22961862
163	0xbd7c41e9	-0.061586294
164	0x3b93a674	0.0045059267
165	0x3e95d545	0.29264274
166	0x3ea19d96	0.3156554
167	0x3ebf353a	0.37345296
168	0xbc9c8969	-0.019108491
169	0x3e971748	0.2950995
170	0x3e2f4fb5	0.1712025
171	0x3e713ee5	0.23559149
172	0xbd7b6acc	-0.061381146
173	0x3beeb2a7	0.0072844806
174	0x3e99eb01	0.30062106
175	0x3e9fb1ce	0.31190342
176	0x3ebf5e60	0.3737669
177	0xbc4491fc	-0.011997696
178	0x3e96655d	0.2937421
179	0x3e41c901	0.18924333
180	0x3e5d5d39	0.21617593
181	0xbdb8d3a9	-0.09024746
182	0xbc892a59	-0.016743826
183	0x3e788cdf	0.24272488
184	0x3e62f55b	0.22163908
185	0x3ea4d599	0.32194212
186	0xbd4af550	-0.049550354
187	0x3e76d8ac	0.24106091
188	0x3e1da74e	0.15395853
189	0xbd891b68	-0.066946805
190	0xbe970f96	-0.2950408
191	0xbdcff004	-0.10153201
192	0xbd71e0fc	-0.059052452
193	0xbdcead35	-0.1009163
194	0xbcee002a	-0.029052813
195	0xbc64a636	-0.013955643
196	0xbe52c1cc	-0.2058174
197	0x3e17f981	0.14841272
198	0xbcfd8925	-0.030949185
199	0xbe7d2504	-0.24721152
200	0xbdd0a546	-0.101877734
201	0xbc64a8c9	-0.013956257
202	0xbd2234f2	-0.039601274
203	0x3c0e002b	0.008667032
204	0x3d10fbd5	0.035396416
205	0xbe3d2479	-0.18470944
206	0x3e36dfd1	0.17858817
207	0xbdbd928f	-0.092564695
208	0xbecb94d4	-0.39761984
209	0xbe0df19a	-0.13861695
210	0xbe27f554	-0.16402179
211	0xbed89b79	-0.42306116
212	0xbe6e2237	-0.2325524
213	0xbd153540	-0.036427736
214	0xbec3215e	-0.38111395
215	0x3c3d02aa	0.01153628
216	0x3dc655bd	0.09684322
217	0xbe6ffc94	-0.23436195
218	0xbea58151	-0.32325223
219	0xbdee8294	-0.116459996
220	0xbf04d8f1	-0.51893526
221	0xbf0103fc	-0.50396705
222	0xbe80aa21	-0.25129798
223	0xbf0a2786	-0.5396656
224	0xbeadf222	-0.33973795
225	0x3dc165f3	0.094432734
226	0xbe5bd0ef	-0.2146642
227	0xbe9b2b93	-0.30306682
228	0xbdc56d44	-0.096399814
229	0xbeef3985	-0.4672357
230	0xbeeeb647	-0.46623442
231	0xbe76968f	-0.24080871
232	0xbeffdd16	-0.49973363
233	0xbe9c5ce9	-0.30539635
234	0x3def68fd	0.11689947
235	0xbe2a33f4	-0.16621381
236	0xbe88e21d	-0.2673501
237	0xbd2a90e2	-0.041642077
238	0xbeacd4fc	-0.33756244
239	0xbec5fe39	-0.3867052
240	0xbe5f5483	-0.21809582
241	0xbed76fcc	-0.42077482
242	0xbe812f67	-0.25231478
243	0xbdf9776f	-0.12180983
244	0xbe37f8ff	-0.17966078
245	0xbdb50b88	-0.0884009
246	0x3e1dd134	0.15411836
247	0xbf026f4e	-0.5095109
248	0xbf00bb01	-0.50285345
249	0xbde8995f	-0.11357378
250	0xbe87659d	-0.26444712
251	0xbe00a10b	-0.12561433
252	0xbdae7184	-0.08517745
253	0xbb746b63	-0.0037295453
254	0x3d247dc5	0.040159006
255	0x3ea7dd5c	0.3278607

decoder.4.bias f4 [3]
0	0x3c37269a	0.011178637
1	0x3d1eecfd	0.03880023
2	0xbda9683a	-0.08271833
